pretrained/firenet_1000_cuda.onnx (onnx, 155961 bytes, 23 tensors)

net.head.conv.conv2d.bias f4 [16]
000000 fa 13 6d be 7e 2c 3a 3d 6c 70 6e bd c7 8c 6c 3d
       -0.23152152 0.045452587 -0.058212683 0.057751443
000010 7b 24 d4 ba 73 af 00 be 4e d6 df 3a 39 32 7f bd
       -0.0016185188 -0.12566929 0.0017077418 -0.062303755
000020 a5 67 70 bb 5f 7b 4f 3d b0 d5 06 3d 6f 90 40 ba
       -0.003668287 0.050654765 0.032918632 -0.0007345741
000030 20 b2 a8 b9 ff 50 db 3c 34 b4 c5 bc ac 07 6b bb
       -0.0003217617 0.02677202 -0.02413378 -0.0035862727

net.head.conv.conv2d.weight f4 [16, 5, 3, 3]
000000 9d 6f 67 3c 7b 19 81 bd 71 32 49 3c dc 67 c7 bd
       0.014125732 -0.06303688 0.012280093 -0.097366065
000010 3f 5c 84 bd 5b e8 e0 bd 9e 10 b4 3c 71 99 a8 bd
       -0.06462907 -0.10981818 0.02198058 -0.082323916
000020 7c e4 87 3c d2 d9 a9 3b 1f 49 59 3d 83 b9 be 3b
       0.016588442 0.005183437 0.05304825 0.0058204546
000030 1b fb 94 3d 39 a8 27 3e 47 07 c1 3d 2d b2 ef 3b
       0.07274457 0.16372766 0.09425216 0.0073149414
000040 d2 85 86 3d c9 f9 38 ba db 0b 1a 3c 20 c8 d9 bd
       0.06568493 -0.0007056264 0.009402241 -0.10633874
000050 e3 ed fe ba 5d 59 e8 bd d6 c5 dd be a3 35 f9 bd
       -0.0019449558 -0.1134517 -0.43315 -0.121684335
000060 03 34 26 3c c1 00 c9 bd ce 25 ae 3a 97 0b 20 3c
       0.0101442365 -0.09814597 0.0013286413 0.009768388
000070 b6 22 83 3d a0 6d c5 3c 07 fc df 3c 6b a9 0f 3f
       0.06403105 0.024100125 0.027341856 0.56117886
000080 31 6f 47 3d 35 52 e5 3b f0 2e 2e 3d 1f e1 87 3c
       0.048690025 0.006998325 0.04252523 0.016586838
000090 ba c1 17 3d 00 04 b8 bc 7e 83 35 3d 08 78 00 bc
       0.037049986 -0.022462845 0.044314854 -0.007841118
0000a0 9a 20 d1 be ed ef 31 bd 33 5e 2c 3d f5 f3 6d bb
       -0.40845186 -0.0434417 0.042082023 -0.003630874
0000b0 67 8e 1f 3d b4 9d 21 3c d7 54 88 3c 61 77 a7 ba
       0.038954165 0.0098642595 0.016642017 -0.0012776667
0000c0 94 00 12 3d d5 c3 8b 3d 9a 5b 20 3c 44 ce 1d 3c
       0.035645083 0.06824461 0.0097874645 0.009631697
0000d0 8f 9e 96 3c d4 3a e7 3b bd c0 d8 3b 14 0d 8d 3c
       0.018386154 0.0070565734 0.006614773 0.01721815
0000e0 8d f4 16 bc d1 68 9f 3d fd 87 b1 3d 1c c4 f7 3b
       -0.009213579 0.07783664 0.08668516 0.00756122
0000f0 75 8f 28 3c 13 75 a7 3c 47 00 dd 39 46 9d 88 3c
       0.010288109 0.020441568 0.0004215261 0.016676556
000100 7e dc b5 3c b4 de 44 bc 4a 4d e4 3d cd 0d f1 3d
       0.022199865 -0.012015987 0.11147554 0.117702104
000110 e2 e5 a0 3c ad c3 b7 3c 92 8b ec 3c f2 94 16 3b
       0.019640867 0.022432173 0.028875146 0.0022976962
000120 b0 c4 98 3c d2 59 7e 3c 87 7a ee bb ae 40 98 3e
       0.018648475 0.0155243445 -0.00727779 0.29736847
000130 2f 81 94 3e 84 2f 7d 3b ae 8c c4 3d fe 40 7a 3d
       0.2900481 0.0038633058 0.09597145 0.061097138
000140 b6 a4 8f 3b 3d 39 73 bc 9c 13 db 39 85 63 3a 3b
       0.0043836487 -0.01484519 0.00041785545 0.0028440666
000150 fb 3f b9 3d 55 4d e1 3d 17 76 4b 3a ce d4 58 bc
       0.090454064 0.11001078 0.0007761432 -0.01323433
000160 6d 3f 30 3c 2f 2c d9 3a 67 67 c7 3a c3 26 7d 3a
       0.010757309 0.0016568954 0.0015213311 0.000965696
000170 e8 a2 e3 3a 23 ce 6b ba f6 cf 07 3c 79 8c bf 3a
       0.0017367275 -0.00089952553 0.008289328 0.0014614008
000180 24 9c 64 3b 4a 3e 68 bb 66 2f 7c ba 2a 9b 48 ba
       0.0034883106 -0.0035437518 -0.00096201 -0.0007652516
000190 8b 5a 22 bb d7 68 4e 39 f1 d8 78 bb 99 f8 ca 39
       -0.0024773206 0.00019684747 -0.0037971104 0.00038713662
0001a0 54 6a fc bb 5b be 94 bb f7 39 bc bb f0 e8 89 bb
       -0.007703105 -0.0045392937 -0.0057442146 -0.0042086765
0001b0 69 62 a6 b8 4d 48 b7 bb 99 23 f1 37 80 a5 85 bb
       -7.933827e-05 -0.0055933357 2.8746015e-05 -0.004078567
0001c0 bc 2d b2 3c 50 42 a6 bb 4c 32 0b 3b 33 99 39 bb
       0.021750323 -0.005073823 0.0021239696 -0.0028320074
0001d0 31 33 e5 3a d8 ae e7 bb c8 d3 2c 3c 50 67 68 bb
       0.001748657 -0.0070704035 0.010548539 -0.003546197
0001e0 84 38 2e 3c ac 7f bc bd 9f c8 fd 3a 11 7c 88 bb
       0.010633592 -0.09204039 0.0019362158 -0.0041651805
0001f0 bc 9c 10 3c 04 91 41 bb 3c b0 5b bb 8c 36 95 3c
       0.008826431 -0.00295359 -0.0033521792 0.018214487
000200 a1 1d b5 b9 9d b9 4f 3c 15 42 9d bf 3c 62 40 3c
       -0.00034545086 0.012678531 -1.2285792 0.011742171
000210 ba cf 03 3b b3 27 89 3c 96 f2 66 bb 3f b0 4a 3c
       0.0020112828 0.016742563 -0.0035239807 0.012371122
000220 3e b2 78 b9 c6 18 fe 3c f6 39 1c be 05 87 ac bd
       -0.00023717523 0.031017672 -0.15256485 -0.084241904
000230 e9 9b 79 3d 4f e2 5b 3d 4f c5 ba 3c b1 13 dd 3c
       0.060939703 0.05368262 0.022799162 0.026986929
000240 77 e8 41 3c 21 76 ee 3b a8 82 a5 3c 63 95 fe bd
       0.011835209 0.0072772657 0.020203903 -0.12430837
000250 e9 96 92 bd dd 61 6b 3d 78 65 36 3d f3 20 3d 3c
       -0.0715769 0.057466377 0.044530362 0.0115435
000260 07 cb 10 3c fc 9b 27 3a c5 c3 f8 3b 8f 64 bb 3c
       0.008837468 0.0006393788 0.007591697 0.022875099
000270 31 7f f4 bd 95 b9 6f bd b7 3c 97 3d c5 d5 3a 3d
       -0.11938322 -0.058526594 0.07384627 0.045614023
000280 8d 2f b2 3c ce df c3 3c 46 03 fd bc 1b 08 01 bc
       0.02175119 0.02391043 -0.03088535 -0.007875468
000290 51 f4 16 3d 16 8e 24 be 9d 41 69 bd 98 78 6c 3d
       0.036854092 -0.16069826 -0.05694734 0.057732195
0002a0 32 78 ec bb 5e 3f 2b 3b 1b 17 d4 3c 91 a5 36 bd
       -0.007216477 0.00261303 0.025889924 -0.04459149
0002b0 00 26 82 bb 15 d2 e0 bb a0 3f 17 3c 61 04 ba 3d
       -0.003971815 -0.006860981 0.009231478 0.090828665
0002c0 1b 7f 65 3c 61 5c af bc 29 58 29 bc 00 84 00 bc
       0.014007355 -0.021406354 -0.01033596 -0.007843971
0002d0 65 e2 dc ba 6f 53 6a bc 1e 82 45 3b 08 6a c2 bb
       -0.0016852139 -0.014302119 0.003013737 -0.00593305
0002e0 1e e0 af bc 5e cd a9 3c 54 2e 43 b9 a8 15 81 bc
       -0.021469172 0.02072781 -0.00018613908 -0.015757397
0002f0 06 81 53 3b ae f7 8a 3a 04 bd 46 bc e5 fd d0 3b
       0.003227295 0.0010602379 -0.012130026 0.006377923
000300 05 82 50 3c ff b2 3e bd e7 e9 19 3d f5 34 e8 39
       0.012726312 -0.046557423 0.037576582 0.00044289944
000310 7d 0b 60 bc 2f d2 2d 3c 13 66 4d 3c 7d 69 c6 bc
       -0.013674614 0.010609194 0.012536543 -0.024220223
000320 bc b1 09 bb 3c 49 05 bc 00 b3 d3 bd 43 8a a4 3d
       -0.002101048 -0.008135136 -0.10336876 0.08034184
000330 a3 b3 2e 3b 80 f0 0b bd c6 9e 8a 3c 3b 3d 4f 3c
       0.0026657365 -0.034164906 0.016921412 0.012648876
000340 fc 6c ab bb 62 8f 0c bb 28 f8 ac 3d 3a 9e 0f bf
       -0.005231498 -0.0021447768 0.084457695 -0.5610081
000350 3c 8d 03 3f a1 a4 e8 3b dc fb e4 3b 5b c7 39 bc
       0.5138738 0.0070997034 0.006988032 -0.011339034
000360 06 38 f2 3c c5 66 b7 bc b2 6e 34 bc be 76 54 3b
       0.02956773 -0.022387872 -0.01101272 0.0032419409
000370 46 c9 b2 be 0a eb a9 3e a4 0f ab 3c d9 79 9f bc
       -0.34919184 0.33187133 0.020881481 -0.019467281
000380 46 bc 9d 3b 28 88 12 3c ff 8a e4 bc 4a b8 51 bc
       0.0048137037 0.008943595 -0.02789831 -0.012800286
000390 1c f1 ec bc 10 27 54 bd 65 5c 34 bd 73 91 d7 bc
       -0.028923564 -0.051795065 -0.044033427 -0.026314473
0003a0 66 e7 8f 3e 72 6d 74 bd a4 13 ee 3a 37 5f b3 bc
       0.2810623 -0.059674688 0.0018163812 -0.021895988
0003b0 02 42 6e 39 3d e5 37 bd c1 dc 88 bd 14 b7 93 bd
       0.00022722039 -0.044896353 -0.066827305 -0.07212654
0003c0 62 ba 90 bd 3e b7 b5 3e d2 66 a9 bd 89 54 db 3b
       -0.070668 0.35491365 -0.082715645 0.006693427
0003d0 14 79 d7 bc 34 90 88 bc fc fa 30 bd 6b 50 9f bd
       -0.026302852 -0.016670324 -0.043208107 -0.077790104
0003e0 18 5c 6a bd e6 0b 92 bd 93 01 c5 3e 25 27 a0 bd
       -0.057216734 -0.07131176 0.38477764 -0.07819966
0003f0 db 08 4e 3c fd 15 0c bc bb 0a 6e bb 15 bd af bd
       0.0125753535 -0.008550164 -0.0036322314 -0.085809864

net.head.recurrent_block.out_gate.bias f4 [16]
000000 d3 64 4f 3d 6a d9 35 bd 8b c5 19 3e 19 73 c0 bc
       0.050633263 -0.044396795 0.15016763 -0.023492383
000010 72 cf a0 bc 02 f7 2b 3b 04 9a 7a bd cb 16 7f 3d
       -0.019630168 0.0026239757 -0.061182037 0.062277596
000020 85 20 77 3d a8 d4 bb bd 28 4c 03 bc 9d ac 1c 3e
       0.060333747 -0.0917142 -0.0080137625 0.15300222
000030 a8 c3 c0 bd 67 36 f7 39 67 d5 5f 3b 5a 92 be bd
       -0.094123185 0.00047152044 0.0034154297 -0.09305258

net.head.recurrent_block.out_gate.weight f4 [16, 32, 3, 3]
000000 7b 4b 43 bb 9c 8d 52 3c f5 72 22 3d fd c6 4e bd
       -0.0029799629 0.012851145 0.039660413 -0.05048274
000010 f3 61 e4 3d af 22 38 bc cf 19 32 bd 2a b1 1b bd
       0.11151495 -0.011238738 -0.043481644 -0.038010754
000020 d1 fc 38 bd 26 04 1d bd 7a c6 d4 3d 1f ce c0 3c
       -0.04516298 -0.038334034 0.10389419 0.023535786
000030 30 b4 c1 3c 93 2e 20 3e 5f 0b 25 3e dc 8c 69 3c
       0.02364549 0.15642767 0.16117619 0.014254775
000040 bd 7e 06 3c 13 bc ba 3d 6b 38 1e 3d 08 26 ba be
       0.008208928 0.091179036 0.038628023 -0.3635714
000050 87 53 e7 3d 60 44 37 bc 55 0d 94 be 6a e6 3d bd
       0.112952285 -0.011185735 -0.28916422 -0.046362318
000060 92 67 83 3d 99 9c 62 3c 5b 0e eb 3c bb 2e 20 3e
       0.06416239 0.013831281 0.028693369 0.15642826
000070 8c 27 81 3d 54 38 02 be 2a 59 60 3d c9 66 78 3e
       0.06306371 -0.127168 0.054772533 0.2425796
000080 16 23 ab bd f7 54 d5 bd 55 cb b5 ba bd ca 5a be
       -0.083563015 -0.104165964 -0.0013869802 -0.21366401
000090 25 9e 78 bd f5 62 43 be 0a de 1a 3d 17 ab 31 bd
       -0.060697693 -0.19080718 0.03780941 -0.043376055
0000a0 de c9 ac bc 7a 2a 36 bc 24 7d 92 bd 11 b7 14 bd
       -0.021092352 -0.011118526 -0.07152775 -0.0363074
0000b0 39 29 c7 3d fa e7 b0 bd bc e8 6c be 75 8d 1d be
       0.097246595 -0.08637996 -0.23135656 -0.15385993
0000c0 82 d2 5b bd 39 40 24 3e 42 f4 15 bd 4a 93 62 3c
       -0.053667553 0.16040124 -0.036609896 0.013829062
0000d0 2f 99 ec bc 18 2a c8 3c 7a cb 64 bd fe 24 8b bd
       -0.028881637 0.024434134 -0.055858113 -0.06794165
0000e0 e0 5a e8 bd aa a5 21 be 63 e0 5e 3d 94 37 d2 bd
       -0.11345458 -0.15785852 0.05441321 -0.10264507
0000f0 8f ca c4 bd 72 7e 0b 3e 8c b7 1c 3e 70 e3 9a 3d
       -0.096089475 0.13622454 0.15304393 0.075629115
000100 d5 10 95 3d 5c df e1 3c 5a cd 58 3e df bc f8 3d
       0.07278601 0.027572326 0.21172085 0.12145399
000110 7b 0a 7b bd 0a 9c e3 bd d3 4b 06 be 7d 79 8b 3b
       -0.06128929 -0.111137465 -0.13114862 0.004256426
000120 1c e2 54 be 13 0b 0c bf d8 fb 1d 3d 57 21 4e be
       -0.20789379 -0.547044 0.038570255 -0.20129906
000130 83 d4 17 be c5 51 05 bd aa 2c 2b bd 59 a7 9d 3d
       -0.1482716 -0.032548685 -0.04179064 0.07697935
000140 41 58 9c bc e3 3d 0a 3e ee 1e a7 3d 36 90 34 3d
       -0.019085051 0.1350017 0.08160196 0.044082843
000150 31 f0 c6 bc ec 34 6a be bd 8f 84 3d 5b 5a 83 3e
       -0.024284454 -0.2287175 0.064727284 0.25654873
000160 0d b2 84 bd d2 9c af 3d 07 2a 23 bc c5 86 0d 3d
       -0.06479273 0.08574833 -0.009958751 0.034552354
000170 61 62 9f 3d 4f 6d 49 3d 80 ca 03 3e 60 bf 63 3d
       0.07782436 0.04917651 0.12870216 0.05560243
000180 d2 f1 38 bb e6 d0 04 3a 57 45 c4 bc 22 bb 5d bd
       -0.0028220308 0.00050665287 -0.023958845 -0.054133542
000190 49 20 7e be a8 b3 ad bd fd 6d 09 3c 62 1b 09 bf
       -0.24817003 -0.08481532 0.00838804 -0.5355741
0001a0 13 7d 16 be 2a 7f 9d bd 3e 64 eb bc b7 47 80 3d
       -0.1469615 -0.0769027 -0.028734323 0.062636785
0001b0 b8 a4 8f bd e7 fb 7b be ef a2 1f 3d e6 35 24 be
       -0.070138395 -0.24607812 0.038973745 -0.16036186
0001c0 4d 0b af bc fc 8b 32 3d 66 3f cd 3d fc 59 bd 3d
       -0.021367693 0.04359053 0.10021858 0.09245679
0001d0 b0 87 66 3c d3 27 37 3c 02 18 96 3c bc 4f 55 3d
       0.014070436 0.011178928 0.018321995 0.052077994
0001e0 49 f9 13 3e 2a 18 d8 3d fa 04 a2 bd 8f 8a af bd
       0.14450563 0.10551484 -0.079111055 -0.0857135
0001f0 8b d0 d6 bd 8a 24 c6 3d fa 85 87 bd 6f 9c 70 be
       -0.10488995 0.09674938 -0.06617351 -0.23497175
000200 c3 d3 8f bd 3a be b5 bb 04 e0 eb be ed 0f d0 bd
       -0.07022812 -0.0055463584 -0.46069348 -0.101592876
000210 d3 7c fb 3c dd e5 36 3b 0b ed 54 3c 91 66 d6 3c
       0.03069917 0.0027908005 0.012995969 0.026171954
000220 48 39 39 be df 92 10 3d 33 77 8e bd 45 5a cb bc
       -0.18088257 0.035296317 -0.06956329 -0.024823317
000230 4e 7b d9 3c 85 86 2a 3c 62 b4 d1 3d 76 1f 48 3d
       0.026548054 0.0104080485 0.102394834 0.04885813
000240 9b 2f 89 3e 69 fc c6 3d 3e 1a 59 3e 11 bf 54 be
       0.26794133 0.09716112 0.21201417 -0.20776011
000250 a9 7e 43 bf e2 0d c2 be 2f 93 bf 3e 26 a5 d6 bd
       -0.76365143 -0.37901217 0.3741698 -0.10480718
000260 1f 70 3f 3e b9 ef 78 be 76 c9 9e be 87 0c bd 3d
       0.18695115 -0.24310197 -0.31013077 0.09230905
000270 ee 4e 6c be 7b 0b 8f bd 38 63 51 3d d9 97 60 3d
       -0.23076984 -0.069846116 0.051120013 0.054832313
000280 b6 c2 a8 3e 3d 68 a0 3e cb 41 0e be bf 6a d3 bd
       0.32961053 0.31329527 -0.13892286 -0.103230946
000290 86 38 70 3d a0 f9 b3 3c d1 7c 0d be 3e 7d a6 bc
       0.058647655 0.021969616 -0.13817145 -0.020323392
0002a0 47 d2 d4 bd 2e eb d3 bd ef 06 d4 bd 4b ff 35 3f
       -0.1039167 -0.10347591 -0.10352885 0.7109267
0002b0 72 16 ff 3e 1f c4 1c 3f 22 62 85 3e c2 72 2c be
       0.49821812 0.6123676 0.26051432 -0.16840652
0002c0 fd a2 3e 3d 47 d7 e2 3d 46 d6 c4 3e ab 6b 4c be
       0.046542156 0.11076217 0.38444728 -0.19962947
0002d0 c5 5c 82 be fd 44 5a 3e cb 8b b4 bd b6 83 0f 3e
       -0.25461403 0.2131538 -0.08815726 0.14015087
0002e0 23 a8 83 3d 42 9b 66 3d c6 cc 29 bd ae e0 06 be
       0.06428554 0.05630041 -0.041455053 -0.13171646
0002f0 c9 27 bb 3d af a7 88 3d d7 f4 de be cb c5 c0 be
       0.09138448 0.06672608 -0.43546173 -0.37650904
000300 2a 09 ad 3e 76 18 ab be 81 91 29 3d 39 2f 0a bd
       0.33796054 -0.334171 0.04139853 -0.03373644
000310 d7 10 62 be 09 93 09 bf f6 5a 97 be f9 cb b4 be
       -0.22076736 -0.5373998 -0.29561585 -0.3531187
000320 8c ab 00 be d0 81 33 be cc 5d 8f 3c 97 8d 65 bc
       -0.1256544 -0.17529988 0.01750078 -0.014010808
000330 6d f9 25 be 5b 7e a5 be f6 bc 1c be 01 75 da be
       -0.1620843 -0.32322964 -0.15306458 -0.42667392
000340 bc 6f 15 bf f2 7b a7 be 93 a9 8e be 7a 0a 5f bd
       -0.5837362 -0.3271175 -0.2786375 -0.05445335
000350 8b f4 b0 be 40 2c 78 be 1b 37 89 be 6b 2d 0d be
       -0.3456157 -0.2423563 -0.26799855 -0.13786857
000360 8a 02 53 3d 6f 39 99 3e 6b 35 28 3d 81 30 9a 3d
       0.051516093 0.2992663 0.04106657 0.07528783
000370 5c cb 0e bd 46 6a d2 bd e4 d7 cd bd 8d 3c 82 be
       -0.034861907 -0.10274176 -0.100509435 -0.25436822
000380 bd 54 60 be de 49 94 3c 01 11 3c 3e b1 5a b2 be
       -0.21907325 0.018101629 0.18365861 -0.34834817
000390 d3 77 98 3d 13 62 8a bd 49 79 51 be 00 3e 2b 3e
       0.0744473 -0.067569874 -0.20456423 0.1672287
0003a0 f6 35 3d be dd 5b 59 be 7d 4f ef 3c d1 dd 31 3e
       -0.18477616 -0.2122645 0.029212708 0.17369772
0003b0 c6 fb 17 be 51 4b 54 3e bb c7 d8 3d 44 2a 1b 3e
       -0.14842138 0.20731856 0.105849706 0.15152842
0003c0 3d c5 38 bd 3e 98 0e 3e bc 10 39 3e 27 b5 88 3c
       -0.045109976 0.13925263 0.1807279 0.016687943
0003d0 e8 f8 75 3b 10 ac cd bc 05 f2 37 3d b8 d8 98 bc
       0.0037532393 -0.02510646 0.044908542 -0.018658027
0003e0 50 02 1e 3a 21 a8 9c bd 56 a4 ac 3c ce c7 20 bd
       0.0006027566 -0.076492555 0.021074455 -0.03925305
0003f0 bc e3 87 be 4f 4a 3d 3d f1 3d 22 be 05 a8 0c 3f
       -0.26540935 0.046213444 -0.15843941 0.5494388

net.head.recurrent_block.reset_gate.bias f4 [16]
000000 8c 97 7b bf 4d 20 45 bf 07 0d ca be 60 fb d6 be
       -0.9827812 -0.7700241 -0.39463064 -0.4198866
000010 90 24 fb bd fb 1c 0b bf 97 4f 97 be 29 25 a0 bc
       -0.12262833 -0.54341096 -0.2955291 -0.01954897
000020 1e 63 1f bf 3d b5 22 bf 57 16 47 bf 5c 60 39 be
       -0.62260616 -0.635578 -0.7776846 -0.18103164
000030 0b 3c a5 bd 11 f1 b7 be 69 09 f5 be 0f 4b 25 bf
       -0.08068093 -0.35926107 -0.47858742 -0.64567655

net.head.recurrent_block.reset_gate.weight f4 [16, 32, 3, 3]
000000 0c c7 49 be 7a 8c a1 be c8 68 a2 bd d2 d6 5e 3c
       -0.19704837 -0.31552488 -0.07930142 0.013601022
000010 0d 56 c4 be db db be 3d 76 d5 f5 3d 3c 6f 5f 3d
       -0.38346902 0.09319278 0.12003605 0.05454944
000020 65 cc 7f 3d 8d 1e 43 be 71 7b 58 3e c9 29 e6 3d
       0.062450785 -0.19054623 0.21140839 0.11238439
000030 f7 cf 03 bc 1c 1b 65 3e 75 dc 25 3e c1 24 97 be
       -0.008045188 0.22373623 0.16197379 -0.29520229
000040 86 6c fa bd f0 f4 97 be 2a c9 10 bd 5b a9 cc 3c
       -0.122277305 -0.2967906 -0.035348095 0.024983099
000050 9a 3b e7 bc 70 c6 91 bd 26 8f 0a 3d b3 d5 bb 3d
       -0.028226662 -0.07117927 0.033827923 0.09171619
000060 6e 25 a7 bd 04 2b e3 3d 72 c4 55 3e 2d 6f 97 3e
       -0.08161436 0.11092189 0.20875719 0.29577008
000070 4e 46 b6 be 22 a1 09 bd e0 33 ff 3d 99 17 00 bf
       -0.35600513 -0.033600934 0.12461066 -0.5003601
000080 65 ce 3d 3e 8f c4 22 be 52 5b 01 bf c5 43 71 3c
       0.18535765 -0.15895294 -0.5052997 0.01472563
000090 f3 ed 40 3e 96 81 90 3e dd b4 a9 3d d6 4f fa 3c
       0.1884077 0.28223866 0.0828645 0.030555647
0000a0 0d 40 58 3d 27 de a6 3d 34 0f b2 3e 0a 61 bf 3d
       0.05279546 0.08147841 0.34777224 0.093446806
0000b0 e0 c9 fe 3c 9d a2 c0 3c 04 5d a9 bd 27 07 ff bc
       0.03110212 0.02351504 -0.082696944 -0.03113134
0000c0 32 2e 8f be e4 90 e6 be 8a 3e 37 bc 43 00 cf 3e
       -0.27964932 -0.45032418 -0.011184344 0.40429887
0000d0 fe ee e0 3d 8b 01 61 3d ed 80 e2 bc f7 b0 20 3e
       0.10983084 0.054933112 -0.027649367 0.15692507
0000e0 23 b6 e7 3e c3 89 8d 3d b2 28 23 bf ed fb 13 bf
       0.45256147 0.069110416 -0.6373397 -0.57806283
0000f0 88 fa 9a 3e b3 66 3c 3d 5c d8 4b be 73 35 c4 be
       0.30269265 0.04599638 -0.19906753 -0.3832203
000100 f3 54 28 bd fd d1 93 3c 18 1a 03 bf 72 00 a8 be
       -0.04109664 0.018044466 -0.5121169 -0.3281284
000110 d6 b2 4c be 24 8d f6 bd a4 57 1a be 3a ab 1a be
       -0.19990095 -0.12038639 -0.15072495 -0.1510438
000120 78 a9 82 3e 0e ce d1 be e7 0b 9f bd 47 7f b1 be
       0.2551992 -0.4097752 -0.07765942 -0.34667417
000130 54 bf 69 bf 8a ba cc be 1e 35 10 be 0f de e4 be
       -0.9130757 -0.39986068 -0.14082763 -0.44700667
000140 f8 dd 31 ba e6 9f 31 3d 69 4c 36 3e 1f b1 84 3d
       -0.000678509 0.04336538 0.17802586 0.06479096
000150 5a a5 96 bc c7 9c f2 bd 35 45 c9 bd 36 8b 2d be
       -0.018389393 -0.11846309 -0.09827653 -0.16947636
000160 2a 7c 43 3e cf 56 67 be 0c 3e d2 3d 88 0e c6 3e
       0.19090334 -0.22591709 0.10265741 0.3868296
000170 db 79 e9 3e 8d 98 05 be 7d e2 01 bf 62 79 9a 3a
       0.4560078 -0.13046475 -0.5073622 0.0011785442
000180 57 93 b2 bd eb 4c 80 3e 97 0c b5 3d dd 15 2e be
       -0.08719509 0.25058684 0.08840292 -0.17000528
000190 bd e0 64 3e 24 2e 54 3d f8 68 ba 3d 1f 24 91 3e
       0.22351356 0.051801816 0.091020525 0.2834787
0001a0 47 cd 45 3e 72 1a 8e 3e 50 9f 0c 3f d7 df 06 3e
       0.19316588 0.2775455 0.5493059 0.13171326
0001b0 86 cb 11 3f 0d d4 93 3d 0d 01 d8 3e 3f c7 35 3d
       0.5695118 0.0721818 0.42188302 0.04437947
0001c0 e9 17 11 bf b4 ae 1c be c7 fc 58 3e 4f da 4b 3d
       -0.5667711 -0.15301019 0.21190177 0.049768742
0001d0 78 39 ed 3d 05 0c 3a bf 44 cb af be f9 8c 24 bf
       0.11583227 -0.7267459 -0.34334767 -0.6427761
0001e0 35 b1 f1 bd 82 71 4e be 2a 23 15 be 42 d2 9c 3d
       -0.11801378 -0.20160487 -0.14564195 0.07657291
0001f0 e4 f3 b4 3e 18 1c 04 bd a1 df bd 3b 29 fc 3f 3d
       0.35342324 -0.032253355 0.005794481 0.046871338
000200 67 a4 fa bd 42 be 98 3d 36 99 95 bd 58 c0 9b 3d
       -0.122383885 0.07458164 -0.07304613 0.07605046
000210 1c e2 11 bc de d7 02 3e 1e 40 9c bd b9 4a da 3d
       -0.008904006 0.1277766 -0.07629417 0.106587835
000220 13 ac 29 bf 85 cb 71 3e d4 3b ab 3d 55 c2 1d bf
       -0.6627819 0.23612793 0.08361021 -0.6162465
000230 dc 67 be 3d 6b 35 b8 3c 85 3f fe 3d 73 28 2b 3d
       0.09297153 0.02248641 0.12414459 0.041786622
000240 d5 6f 6c bd 39 c7 53 3e a1 27 27 3d 31 b6 cc 3d
       -0.05772384 0.20681466 0.040809277 0.09995688
000250 9f 06 17 3e 3c b0 bc 3d 98 ff b5 bd e2 2a b3 bd
       0.1474862 0.092133015 -0.08886641 -0.087484136
000260 53 10 41 be 1f 0f 43 be fe 3b e1 bd b0 02 8a bc
       -0.18853883 -0.19048737 -0.10997771 -0.016846985
000270 8a cb 14 3e ef cd 8e be 86 8c d3 bd 92 01 8e be
       0.14530769 -0.2789149 -0.10329537 -0.27735573
000280 f1 41 f7 be c7 13 06 bf ed 0f 3b bf 2f e2 d6 be
       -0.48292497 -0.5237393 -0.73071176 -0.4196944
000290 c8 e6 2a be 9f 69 8d bf 2e df 62 bc 8a cd 9d ba
       -0.16689599 -1.1047858 -0.0138471555 -0.0012039405
0002a0 10 d3 8d be 5f 79 ba 3d a4 21 94 ba 0f f5 dc 3d
       -0.2770009 0.09105181 -0.001130153 0.10788929
0002b0 55 75 95 bc b6 7f f2 bd 50 20 33 3e 4f f3 36 3e
       -0.018244425 -0.11840765 0.17492795 0.17866252
0002c0 a1 1c 17 3d 45 87 1c bd c1 20 bf bd f9 94 d1 bd
       0.036892537 -0.03821494 -0.09332419 -0.102334924
0002d0 a5 ef a8 be 62 5b 56 3f cf 16 e6 be 50 93 04 3e
       -0.32995334 0.8373319 -0.44939277 0.1294682
0002e0 88 23 23 3f af 05 8e be 5e d4 df bd ae b6 dc be
       0.6372609 -0.2773871 -0.10929178 -0.43108124
0002f0 f1 48 f2 be a4 ea 85 3e ca 9e 96 3d 95 9c c9 3d
       -0.47321275 0.2615558 0.07354505 0.09844319
000300 84 99 0a 3d 72 0e b6 3d 11 8c 21 3d 5b c2 da bc
       0.03383781 0.08889474 0.03944022 -0.026704004
000310 21 77 49 bd 69 bc 37 be 6b bd 6b bd 4a 09 da be
       -0.049185876 -0.17942967 -0.05755369 -0.42585212
000320 6c 8c b1 bd 12 10 a5 be 21 99 12 3e 8f d0 a4 be
       -0.086693615 -0.32238823 0.14316227 -0.32190368
000330 eb 3a 2e be 1b 87 1d 3d a7 55 d6 bc 3d 6a 85 3e
       -0.17014663 0.038458925 -0.02616389 0.26057616
000340 e3 13 08 ba be 5b 33 3c 4d 7b 0b 3e 87 8a e6 bd
       -0.00051909516 0.010947166 0.13621254 -0.11256891
000350 3a 60 3a be a3 b7 3c bd 22 54 c4 ba 7f 44 d8 bb
       -0.1820077 -0.046073567 -0.0014978687 -0.0065999622
000360 3f b5 c2 bd 24 a9 23 3d e9 af 73 be 68 23 87 be
       -0.09507226 0.039956227 -0.23797573 -0.263942
000370 40 6f b7 be 03 40 29 bc 67 96 83 be 58 fd a5 bd
       -0.35827065 -0.010330203 -0.25700685 -0.08104962
000380 d7 3a 14 3d f8 e9 e6 3d d9 19 ac 3e 4d d7 42 3e
       0.036188927 0.11275095 0.3361347 0.19027443
000390 0c 88 c8 3e 45 31 22 bd 7f 5f 71 3e f9 a0 92 3e
       0.39166296 -0.03959777 0.23571585 0.28638437
0003a0 e7 34 13 bd 91 90 8f 3e 85 90 6c bd 92 c3 b2 be
       -0.035939123 0.28039983 -0.057755012 -0.34914833
0003b0 15 1d 00 be 67 59 5e bd 93 94 6b bf 84 49 30 be
       -0.12511094 -0.05428448 -0.9202358 -0.17215544
0003c0 5a 5b 90 3e 75 65 32 3f a8 1b e1 3e 2a 57 a1 be
       0.28194696 0.6968606 0.43966413 -0.31511813
0003d0 a5 4a b3 be 67 ae d6 bd f6 75 81 be bb 81 25 bf
       -0.35017887 -0.10482483 -0.2528531 -0.6465108
0003e0 6b 75 ca 3c c9 aa 30 be 32 e7 a5 bd 1e 71 e3 3d
       0.024714192 -0.1725265 -0.08100738 0.1110556
0003f0 d6 bb f7 bd ad 9c 8b 3d 43 51 a5 be 5a f1 03 bb
       -0.12096374 0.06816993 -0.3228856 -0.002013287

net.head.recurrent_block.update_gate.bias f4 [16]
000000 29 ee 8b 3f 0f 91 81 be 4e 12 ad 3e 47 80 b9 bf
       1.0932056 -0.25305983 0.33803028 -1.4492272
000010 8f c9 11 bd 79 6b b5 3f 35 69 9b 3e 67 9c 46 3f
       -0.035592612 1.4173423 0.30353704 0.775824
000020 9c bc 4f 3f a2 43 ea be 7c 53 af 3e 2d c2 4d 3f
       0.8114717 -0.45754725 0.3424338 0.80374414
000030 f6 a1 80 3f d7 eb 3b be 74 f9 ad 3f 4e da 96 bf
       1.0049427 -0.18351685 1.3591752 -1.1785371

net.head.recurrent_block.update_gate.weight f4 [16, 32, 3, 3]
000000 0c a5 2e 3d 96 e5 83 3e db 64 7b 3e 19 84 60 3e
       0.04263787 0.25761098 0.24550192 0.21925391
000010 0c f3 b8 be e6 2a 29 be 48 a3 5e 3e 6e 81 0b 3e
       -0.3612293 -0.1652027 0.21741974 0.13623592
000020 30 b8 a9 3a 2e c9 52 3e 8a 3c 69 bd f4 9f 1d 3f
       0.0012948569 0.20584556 -0.0569425 0.61572194
000030 cd 6d f5 bd e4 ae a5 be 01 5d 86 be f0 73 67 3e
       -0.119838335 -0.32359993 -0.2624283 0.2260282
000040 40 ca 6f be 9c 51 0e bd 44 e4 82 bc e2 6c ba 3d
       -0.23416996 -0.034745798 -0.015977986 0.09102799
000050 4f 96 ad be d9 31 b6 3c 50 a8 88 3e 8b 5f e2 3d
       -0.3390374 0.022240566 0.26690912 0.110533796
000060 e6 e3 f9 bd 5a 9b 3a 3e 84 d3 18 be c8 bd f4 be
       -0.12201671 0.18223324 -0.14924437 -0.47801042
000070 8f 19 80 3e fc 9a e2 3e 87 44 72 be b0 c0 da 3e
       0.250195 0.4425887 -0.23658954 0.42725134
000080 b6 4d 2d 3f fc 34 17 be ed d2 ea 3d b7 33 94 3e
       0.676967 -0.14766306 0.11466012 0.28945705
000090 e6 f1 29 be 0c 02 2d be 37 32 f1 bc e3 92 e0 3c
       -0.16596183 -0.16895312 -0.02944289 0.027413791
0000a0 98 80 aa 3e 6f e9 8f bc a8 db 82 3d 66 82 8b be
       0.33301234 -0.017567364 0.06389552 -0.27247924
0000b0 5e 52 c6 bd 63 91 d3 be ae 2e 2f bc 46 d3 ab 3c
       -0.09683679 -0.4132186 -0.010692282 0.020974766
0000c0 8a 67 0a 3c 17 10 f9 be f0 79 89 be 35 a3 cf 3d
       0.008447537 -0.48645088 -0.26850843 0.10138551
0000d0 ea e3 d0 bc c4 8f 28 3d 66 ff 46 3c b4 bb c2 3e
       -0.025499303 0.04115273 0.012145853 0.3803383
0000e0 65 c8 23 be 5a 9c 1e 3d cd 4d f2 3d 7a b4 fa 3d
       -0.15994413 0.038723327 0.118312456 0.122414544
0000f0 df 3e 08 bd 76 4e 8d be d0 3b 05 3e aa 11 aa 3d
       -0.033263084 -0.27598923 0.13011098 0.083041504
000100 a0 bb 5d bb 0b 3e a8 3d 97 d8 ed 3d 77 eb 08 bf
       -0.0033833757 0.08214959 0.11613577 -0.5348429
000110 84 8d e9 3d 41 5f 61 3e 2c d8 1c bd e7 b6 04 be
       0.11403945 0.22008993 -0.038292095 -0.12960397
000120 41 9b 08 be 0a 3f 0c bf 0b 18 68 bd b6 f8 9e be
       -0.13340475 -0.5478369 -0.056663554 -0.31049126
000130 b5 d7 9a be 7c 81 a5 bd 1f 4d 86 bc 33 32 a2 bd
       -0.30242696 -0.08081338 -0.016394196 -0.07919731
000140 8b 09 47 bb 36 d2 fa bc 81 5f 04 3d 2e 28 a1 3d
       -0.0030370678 -0.030617815 0.032317642 0.07868992
000150 d5 a0 e1 3c bf 1a bd 3e fe 24 a2 bd b1 a6 af bc
       0.027542511 0.36934468 -0.07917212 -0.02144179
000160 cf 17 85 3c 47 a4 2a be 1e ca 50 bd db 8c 1c 3e
       0.016246704 -0.1666423 -0.050974004 0.15288107
000170 b1 24 a1 bb 3e 94 11 3e 60 95 b0 3d 83 03 4c 3e
       -0.004917704 0.14216706 0.08622241 0.19923215
000180 5f 6b 13 bd 19 7e 5a 3e c6 ec 50 3e 63 b6 25 bd
       -0.03599107 0.21337165 0.20402822 -0.04045714
000190 5c 5c 26 3d a2 6e a7 be 8d f6 55 3e 83 80 f3 bc
       0.040615425 -0.32701594 0.20894833 -0.029724365
0001a0 f0 55 17 be cc df cd bd c2 7d 74 3e 94 63 79 3d
       -0.14778876 -0.100524515 0.23876098 0.06088598
0001b0 ad 1f 31 be 63 12 c3 bd 25 9a f8 bd 6f dd 52 be
       -0.1729724 -0.09524991 -0.12138776 -0.20592283
0001c0 38 ab ca 3e ba 41 36 bd 40 51 4a be 1f 54 11 3a
       0.39583755 -0.044496275 -0.19757557 0.0005543846
0001d0 26 ea 39 3c 6f 95 4f 3e ef af 78 3e 58 a5 e4 3c
       0.011347329 0.20271848 0.24285863 0.027910873
0001e0 e6 3d 8f 3e 30 04 c7 be 06 37 1b be f7 74 75 3e
       0.27976912 -0.38870382 -0.15157709 0.239704
0001f0 86 75 46 3d 82 7b a4 3b e1 cb fe 3d ac 66 78 be
       0.048451923 0.005019606 0.124412306 -0.24257916
000200 f7 75 1a 3d ce 17 1c 3d 36 ca a0 3c 30 c1 b0 3c
       0.037710156 0.03810864 0.019627672 0.021576494
000210 a3 45 9b 3d f9 ae 36 be 34 80 75 bc 63 a8 86 be
       0.075816415 -0.17840184 -0.014984179 -0.26300344
000220 3f 28 cd 3e c6 89 8a 3d f2 6f 30 be c4 d5 bb 3e
       0.40069768 0.067645594 -0.17230204 0.36686528
000230 38 bc ce 3c e8 7b 6a 3e 17 81 98 3d fd 7f 91 3e
       0.025236234 0.22898829 0.07446497 0.2841796
000240 b4 06 03 be 5b 3f fb 3d 8a f6 9c 3d e2 6e 2b be
       -0.12795526 0.122679435 0.07664211 -0.16741517
000250 15 71 30 3e df 97 03 be 35 b2 68 3d e4 78 64 3a
       0.17230637 -0.12850903 0.056810576 0.0008715524
000260 b6 f6 44 bb af b2 b5 3d 9d e6 df 3c c5 7b 94 3e
       -0.0030054278 0.08871972 0.027331645 0.2900068
000270 49 71 96 bb ef 49 be 3e 7f b8 3c 3e d9 69 fd bd
       -0.0045911414 0.37165782 0.18429755 -0.123737045
000280 3e 90 b2 bc 41 c7 39 3e 07 fc 02 3f d1 01 e5 3e
       -0.021797296 0.18142416 0.51165813 0.44727948
000290 19 19 a2 bd 32 e6 0b 3f 37 c3 87 3e f9 c6 01 be
       -0.07914943 0.54648125 0.26516125 -0.12673558
0002a0 a5 a0 c5 bd 8c e6 4e bd 0c 9f 2f be c2 ce 51 be
       -0.09649781 -0.050512835 -0.17150515 -0.20489028
0002b0 27 d6 fc 3c 8c a6 22 be 6b e1 3f bb 7d 81 f2 3d
       0.030863835 -0.15883845 -0.0029278647 0.11841104
0002c0 48 fb a6 3d 55 d1 1b 3d 61 71 d3 bc 36 b8 a1 3d
       0.08153397 0.03804143 -0.0258109 0.078964636
0002d0 8e 94 23 3e ea 22 60 3d e9 14 a4 bd 29 b1 b4 3d
       0.15974638 0.054720797 -0.08011801 0.08822853
0002e0 a3 ea e4 be c9 98 94 bb 6b b5 05 bd a0 1b 8f 3e
       -0.44710264 -0.004534815 -0.032643717 0.27950764
0002f0 10 09 a6 bd 98 80 99 3c ad 05 98 3d c2 4c 07 bd
       -0.08107197 0.018738076 0.074229576 -0.033032186
000300 bc c9 c3 3c 02 40 9f 3d 18 89 8d 3d 54 b3 8b bc
       0.023899905 0.077758804 0.06910914 -0.017053284
000310 88 8f 06 bd ed 50 da bc 24 da b0 bc 29 d0 81 3b
       -0.032851726 -0.026649917 -0.021588393 0.003961582
000320 50 61 7f 3b ae 23 24 3c 20 d4 cb bd 80 cf 84 bd
       0.0038967915 0.010018272 -0.09952569 -0.0648489
000330 37 8e 91 bc e0 3c 7b bd a7 4e 6b 3c 36 5a 4f 3d
       -0.017768009 -0.06133735 0.014362014 0.05062314
000340 f3 a4 48 3d aa 4e e7 3d 92 56 23 bd 68 a4 5f 3e
       0.048985433 0.11294301 -0.03987748 0.2184006
000350 87 74 4c 3d fd 8c 9f 3a 7c 6c c5 bd 4d 8b b0 3d
       0.049915817 0.0012172755 -0.096398324 0.086203195
000360 0c 73 68 be c8 a5 7a be 9a 0f 61 bd 16 b6 55 bd
       -0.22700137 -0.24477303 -0.05494652 -0.052175604
000370 d9 eb e3 bd ea 41 a2 bd 58 e6 e0 bd aa 4a 06 be
       -0.11128969 -0.07922728 -0.109814346 -0.1311442
000380 78 3a 14 be ed 55 7a bc 29 29 20 bd 4d 85 43 bd
       -0.14475429 -0.015279275 -0.039101753 -0.047734547
000390 14 7b 32 bd b0 b1 16 3d c4 b6 ab bb fb 4c 86 bd
       -0.043574408 0.03679055 -0.005240293 -0.065576516
0003a0 ed ed 1a 3c 92 d1 4b bc c9 f5 ba bc cd 37 5e bd
       0.00945614 -0.012440102 -0.022822278 -0.054252435
0003b0 c0 67 b9 bd ac cb 55 3e 74 db 89 3b 4f ef f9 3e
       -0.09052992 0.20878476 0.004207069 0.4881539
0003c0 1c 84 f1 3c a7 2a 2a bd 6c 71 a2 3c 8c b6 44 3c
       0.02948194 -0.041544583 0.019829474 0.012006413
0003d0 d9 2d 8e 3c 87 fc 8c be eb 94 d9 bd d5 33 0b 3e
       0.017355846 -0.27536413 -0.10624107 0.13593991
0003e0 e3 45 17 bd 91 c7 33 bc 39 b2 8f 3d 3d 96 ab bd
       -0.036931884 -0.010972873 0.07016415 -0.08378265
0003f0 4f 95 00 3e 82 ca 92 3c ce a8 fb bc 6b 96 ab 3d
       0.12556957 0.017918829 -0.03072014 0.08378299

net.pred.conv2d.weight f4 [1, 16, 1, 1]
000000 e2 b6 10 bc b1 0d 9e bc 25 fe 05 bd bb c5 45 3c
       -0.008832665 -0.019293638 -0.032713074 0.012071068
000010 1f 84 f5 bc 87 af 4e 3c 1a d6 35 3c e0 6f 83 3c
       -0.029970227 0.012615091 0.011098409 0.016044557
000020 1c 12 85 3c 92 f4 d9 bb 10 9b 49 bc 22 c5 3b bc
       0.016243987 -0.0066514695 -0.012305036 -0.011460574
000030 47 84 40 3c 5f a1 2c bc 17 f0 0e bc ec 06 06 3c
       0.011750287 -0.010536521 -0.008724234 0.008180361

net.resblocks.0.conv.conv1.bias f4 [16]
000000 3b 53 08 3e 90 f9 da 3d df a8 49 3d 08 77 55 3d
       0.13313 0.106921315 0.049233314 0.05211547
000010 b5 92 51 be 14 3a 0f bc 1c cd 8b bb f3 58 0f 3e
       -0.2046612 -0.008741874 -0.0042663943 0.13998775
000020 c3 aa f6 bd 19 00 f5 3c 3a 81 20 3e a9 fd e3 3d
       -0.12044289 0.029907273 0.15674296 0.11132366
000030 6b 16 75 3d ff 69 9a 3d 3b 7c 54 3d ab 48 54 3e
       0.059835833 0.075397484 0.051876288 0.20730846

net.resblocks.0.conv.conv1.weight f4 [16, 16, 3, 3]
000000 29 2e 8d 3d c2 16 d2 3b b0 88 66 3d 61 af 94 bd
       0.0689357 0.0064114043 0.0562827 -0.07260013
000010 55 a3 02 bd 07 51 d2 3d 36 4d 9b 3e fe b1 9e be
       -0.031894047 0.10269361 0.30332345 -0.30995172
000020 27 e0 50 3d 16 14 86 3d fe dc 96 bd fe 6a 52 bd
       0.05099502 0.065468 -0.0736637 -0.051371567
000030 ae bb e0 3d d6 e0 0c 3f 15 db af bd db 26 a9 3c
       0.10973297 0.5503057 -0.085867085 0.02064841
000040 e6 8c f7 bd f7 b4 48 be 9f 35 77 be a7 b9 00 bc
       -0.12087421 -0.19600283 -0.24141549 -0.007856763
000050 f9 b1 26 3e f4 7b 88 be b4 22 05 be 86 b7 18 b9
       0.16278829 -0.2665707 -0.1300152 -0.00014564217
000060 ce 95 4f be de d8 0b bd c9 80 84 3d 00 2f 4b be
       -0.2027199 -0.034142368 0.06469876 -0.19842148
000070 17 7a 0c bd 7a f9 a9 bd 32 ad 86 be 08 7c 77 bc
       -0.03429612 -0.08299537 -0.26304013 -0.015105255
000080 2f 2d 85 be 4d 03 8a bd 69 49 ca bd 44 c1 1f be
       -0.26011035 -0.06738911 -0.09877283 -0.15601069
000090 0d 07 c5 3c c1 59 97 3c 2f f1 28 3e 94 f0 6c bd
       0.024051214 0.018475415 0.16498254 -0.05784662
0000a0 2d fd 13 3e de 94 e7 bb 99 70 25 3e 91 7f 87 be
       0.14452048 -0.007067307 0.16156234 -0.26464513
0000b0 59 a6 13 3d ea 17 2f 3d ad e3 e7 bc a9 84 f9 3c
       0.036047313 0.042747416 -0.028306806 0.030458765
0000c0 b0 bf d8 bd 59 78 80 be d2 0b 05 be 10 31 53 3e
       -0.105834365 -0.25091818 -0.1299279 0.20624185
0000d0 de 3f dd bd d7 be 6e 3d 56 34 25 be b0 17 08 3f
       -0.10803197 0.058287468 -0.16133246 0.53161144
0000e0 3c f1 0e be fe 44 6c bc 85 bb 68 3d 4f c6 60 bd
       -0.13959211 -0.014420746 0.056819458 -0.05487662
0000f0 32 ba 45 3d 5a e0 1e 3d f1 9f 6d bc a7 d1 8a bd
       0.048273273 0.038788177 -0.014503465 -0.06778269
000100 67 61 c3 bd 50 f0 1f be ea 31 4f be de 5f 1c 3e
       -0.095400624 -0.15619016 -0.20233884 0.15270945
000110 23 bc a8 bd 65 01 73 bd 4b bc 23 3d 36 5a 31 be
       -0.08239009 -0.0593275 0.039974492 -0.17319569
000120 1a 23 ef 3d 62 74 82 bd 20 83 91 3d 44 08 48 3d
       0.11676617 -0.063698545 0.07105088 0.048836008
000130 f5 18 13 bd fb d1 f0 ba f1 b4 17 3e cf 13 b2 bc
       -0.035912473 -0.0018373126 0.14815117 -0.021737961
000140 59 fa b2 3d 20 29 f4 3d cf 40 0f 3e ea cc ff 3d
       0.08739156 0.119219065 0.13989566 0.12490256
000150 b8 6e 2f 3e 70 6d 94 3e c0 67 48 3e 93 00 01 3d
       0.1713208 0.28989744 0.19570827 0.03149469
000160 b7 21 2a 3e 9a f7 0e 3e b8 36 08 3e 46 67 9c be
       0.16614424 0.1396164 0.13302124 -0.3054754
000170 5c 7e a5 3c fc bd a7 3e c4 d7 93 3b 16 2f b9 be
       0.020201854 0.32762134 0.0045118053 -0.36168736
000180 9c 1d 9a 3d e1 76 27 be df 86 2c bd 95 d2 a7 bd
       0.07525179 -0.16353942 -0.04212081 -0.08194462
000190 bb 77 95 3c d8 33 69 3c 68 cf 6f bc 5b 25 cd 3c
       0.018245568 0.014233552 -0.014636852 0.025042227
0001a0 24 97 63 bd a1 17 92 bd a1 d6 e0 bd 19 ac 7f bd
       -0.05556406 -0.07133413 -0.10978437 -0.062419984
0001b0 8f ca b9 bd 60 b8 19 3e 54 66 3e bd 33 10 8a 3d
       -0.09071838 0.1501174 -0.046484306 0.06741371
0001c0 4f f1 04 3e e7 65 7a 3d fe 26 cc be a1 11 c4 3d
       0.12982677 0.061132338 -0.398735 0.09573675
0001d0 c1 ed 9a bd f4 0b 84 3c e5 ea 34 be 63 a8 19 3e
       -0.07564879 0.016118981 -0.1766773 0.1500564
0001e0 84 01 ea 3d b2 d1 2d be 5b 5b e8 bd 05 99 48 3d
       0.1142607 -0.16974524 -0.1134555 0.048974056
0001f0 ca ac 9c 3d 46 19 fd 3c 91 04 bd 3d 54 ae 3a 3e
       0.076501444 0.03089584 0.092293866 0.18230563
000200 aa d2 e5 3d 33 18 88 3e 8a 19 6c bf 5b 59 0e 3e
       0.112218216 0.26580963 -0.9222647 0.13901274
000210 6a 05 4c 3d 3b 51 e9 3d 2e b3 13 3d db 98 32 bd
       0.04980985 0.113924466 0.03605955 -0.043602806
000220 c5 52 4e 3d 34 7f 8b 3d bd 78 74 bd f4 d0 09 3e
       0.050371904 0.068113714 -0.059685457 0.13458616
000230 f5 83 07 bc 9f c6 6e 3d 82 bf dd 3c 8b 4c 71 bd
       -0.008271207 0.05829489 0.027068857 -0.058910888
000240 69 1b 9d bd 63 13 d8 bd 9c 78 3e bd 27 68 01 3e
       -0.07671244 -0.10550573 -0.04650174 0.12637387
000250 e5 d9 4c 3e 52 ad 18 3e 24 37 40 3d bc 67 33 3c
       0.20004995 0.14909866 0.046927586 0.010950025
000260 9d 73 6b be ff 82 b5 3e 11 9e fa 3d 1a 4a f1 3e
       -0.22993322 0.35451505 0.1223718 0.47126848
000270 d8 85 7e 3c ce 11 43 be 0c 9b d5 3d a6 3a 70 be
       0.0155348405 -0.1904976 0.104299635 -0.23459873
000280 3a 1e ed be ae 69 22 be 3e 30 e7 bd 57 92 29 be
       -0.46312124 -0.15860626 -0.11288498 -0.1655973
000290 13 9f be 3d 1f 8b dd 3d d5 1c f4 3c af 0d 30 3c
       0.09307685 0.10817551 0.029798904 0.01074545
0002a0 e0 98 a3 bd df d9 14 3d 36 f5 98 bd b9 ad 53 bc
       -0.07988143 0.03634059 -0.07468645 -0.012919837
0002b0 81 56 4a bd 7b 53 70 3c ff 5f ac 3d 4e 8f 40 bc
       -0.049398903 0.014668341 0.08416747 -0.0117529165
0002c0 16 e3 12 3d 59 88 9d bc 99 2b c1 b9 75 b7 81 3b
       0.035861097 -0.019230055 -0.0003684431 0.0039586374
0002d0 92 ba 0f 3e a9 99 a2 3d 79 9d 8d bd 76 8e 38 3d
       0.14036015 0.079394646 -0.06914801 0.045057736
0002e0 dd f9 6f be 58 3e 04 bd fd 2a a5 3d 16 db c2 3c
       -0.23435159 -0.032286018 0.0806484 0.023786109
0002f0 3e 3e dd 3c 37 90 3c be ab f0 bd bd 52 b6 05 be
       0.027007218 -0.18414389 -0.092744194 -0.13057831
000300 12 27 1d bd a5 80 4b be 00 c4 e0 bd a2 b1 26 3e
       -0.03836734 -0.19873293 -0.10974884 0.16278699
000310 d3 f4 6b 3d 6a 90 b9 3d 4f 15 1b be 45 d5 df bd
       0.05760653 0.09060748 -0.15144847 -0.1092935
000320 85 b5 25 3c 64 fb 81 bd f7 b1 b8 bd 00 2e b1 ba
       0.010114078 -0.06346777 -0.09018319 -0.0013517737
000330 42 dd fd bb ed d3 ff 3c e5 6e f1 3a 5c 8d 3e 3e
       -0.0077473233 0.031228984 0.001841989 0.18608612
000340 34 e5 54 3e 75 b3 11 3d a7 90 87 3e 53 8f 3e 3e
       0.20790559 0.035571534 0.26477548 0.18609361
000350 24 7b 74 3d ec 0f 6d be 06 8d 89 be 8c 87 87 bc
       0.05968775 -0.23150605 -0.26865405 -0.016544126
000360 46 21 8d 3c e0 7d c3 bc bb 17 35 3d ea 14 6d bd
       0.01722778 -0.023863733 0.044212084 -0.057881273
000370 40 02 1b bb f4 a5 4b bd b4 82 af 3d 67 ce 29 3d
       -0.0023652464 -0.049718812 0.085698515 0.041456606
000380 db 26 21 3d 22 b3 59 bd a2 8c 2d 3c 1f d8 38 bc
       0.039343696 -0.05314935 0.0105926115 -0.011281996
000390 ad f9 d0 bd 17 e9 81 3d d5 8e 1b bd 53 bc 5b 3d
       -0.10203872 0.063432865 -0.037978012 0.053646397
0003a0 a7 8c 3b bd 35 dd d1 bc 42 85 23 be 6e 77 2c bc
       -0.045788433 -0.025618175 -0.15968803 -0.010526521
0003b0 a6 d8 b3 bd ce f3 2f bc cc d8 b4 3d 89 17 86 3d
       -0.08781557 -0.01073928 0.08830413 0.06547458
0003c0 b3 b1 48 3d c8 dc 90 3b e7 71 05 bd 0c 7d 0a 3d
       0.048997592 0.0044208504 -0.03257933 0.03381066
0003d0 0a b2 c7 bd f6 03 11 bd 55 68 04 3d b3 06 c2 3d
       -0.09750755 -0.035404168 0.03232606 0.09473934
0003e0 70 87 12 bd d2 89 ab bd 67 ec db 3b cb 38 8d bc
       -0.035773695 -0.083758965 0.006711531 -0.017238995
0003f0 db a2 f1 3d 7a a1 23 3e 8d e7 9b bd 93 20 d8 bc
       0.1179864 0.15979567 -0.07612524 -0.02638272

net.resblocks.0.conv.conv2.bias f4 [16]
000000 57 c5 9a 3e 59 46 1a 3e b7 c0 19 be 28 af b7 3d
       0.30228683 0.15065898 -0.15014921 0.08968955
000010 95 3b d4 bd d0 32 6b 3e f9 0d c0 3c d2 5e 74 bd
       -0.10362927 0.22968602 0.023444163 -0.05966074
000020 33 e6 e2 be 0b 34 7e 3e 74 8d 05 3e 28 1f 1b 3e
       -0.44316253 0.2482454 0.13042241 0.15148604
000030 39 d0 57 bc 2f 70 60 3d 79 d8 31 3e bc 90 7c 3e
       -0.013172203 0.054794487 0.17367734 0.24664587

net.resblocks.0.conv.conv2.weight f4 [16, 16, 3, 3]
000000 95 79 56 be 51 58 84 be 3e fa 96 be cb b5 0a bf
       -0.20944817 -0.2584863 -0.29487795 -0.54183644
000010 9c d8 15 bf d1 d8 1c bf 85 82 e7 b9 22 3f d3 be
       -0.58533645 -0.61268336 -0.00044156998 -0.41259104
000020 fa 81 d2 bd 72 46 48 3d a8 12 27 3d 6b cc 16 be
       -0.10278697 0.048895307 0.040789276 -0.14726417
000030 b8 dd a6 3d 7a 7f 0b 3e 15 3f 4f be d1 9c bf 3d
       0.08147758 0.13622847 -0.20238908 0.09356082
000040 99 4b 18 3e 50 9f a9 bd 9b 75 2d bd e4 12 31 bc
       0.14872588 -0.082823396 -0.042348485 -0.0108077265
000050 f8 d9 f3 bd 1c b5 5d 3e 0c c0 31 be 98 d6 74 3d
       -0.119068086 0.21651119 -0.17358416 0.059774965
000060 32 e9 b4 bd 1c 9a 04 3e 99 97 17 bb e5 65 9f bd
       -0.08833541 0.12949413 -0.002313113 -0.07783107
000070 ac 2f 4c bc b5 3c 02 3d df 7b 8b 3d 03 61 41 be
       -0.012462538 0.031796176 0.06810736 -0.18884663
000080 eb 33 6c 3c bc b4 37 3d 8a 93 3f bd 6b 3f 40 bd
       0.014416675 0.044850096 -0.046771564 -0.04693548
000090 cd d3 4b 3e 71 7d b7 3d 0b 33 c2 3d 55 72 d3 3c
       0.19905014 0.08959473 0.09482392 0.025811354
0000a0 ed f3 c3 be 14 f4 21 3e 1b 6b 08 3e bb 81 a7 3e
       -0.38272038 0.15815765 0.13322107 0.32716164
0000b0 f8 b6 94 bd 9e ba 0c bd db f4 08 3e 96 50 3d 3d
       -0.07261461 -0.03435766 0.13374655 0.04621943
0000c0 26 f4 dd 3b 14 40 b7 3e 7f 56 6a 3d e8 03 de 3d
       0.0067734895 0.35791075 0.057211395 0.10840589
0000d0 7b fb 00 be ca 01 19 3d 30 f4 11 3e 84 2b d8 bc
       -0.12595932 0.03735522 0.14253306 -0.026387937
0000e0 8c 63 a0 3c 5c 2c da 3d 94 0b a4 bd 01 e8 26 3d
       0.019578718 0.10652992 -0.08010021 0.0407486
0000f0 c5 ef 1e 3d 95 c7 01 3e d2 d9 a4 3c b5 41 18 3d
       0.03880288 0.12673791 0.020123396 0.037172038
000100 18 5c 5a be 37 70 98 3c d9 74 8d bc e5 2b d7 3e
       -0.21324193 0.018608196 -0.017267631 0.42025676
000110 52 41 cc 3d a0 4a 32 bd 57 69 13 3d 7f d8 82 3d
       0.09973396 -0.0435282 0.03598913 0.063889496
000120 2f bc 6f 3c 53 7a 50 bd 45 11 ff bc f5 c1 57 be
       0.014632269 -0.050897907 -0.031136164 -0.21070082
000130 67 f8 3c be d9 fd f1 bd c0 94 0d 3d 0a 01 4a bd
       -0.18454133 -0.11815996 0.034565687 -0.049317397
000140 28 e7 ad bc 44 21 9d 3d 52 8d a9 be 58 cb 04 3d
       -0.021228388 0.076723605 -0.3311563 0.032420486
000150 63 dc 19 be 07 84 17 3d ec 41 ce bd 07 8c 4a bd
       -0.15025477 0.036991145 -0.10071167 -0.049449947
000160 c7 5c 81 bd 6e b0 9f 3d b9 bb c3 bd 41 95 35 bd
       -0.06316524 0.07797323 -0.0955729 -0.044331793
000170 1b 86 22 bb 79 0e 07 be b5 df 75 3e 4d 90 f4 3c
       -0.0024799171 -0.13189115 0.24011119 0.029853964
000180 30 d7 c8 3c ca f0 9d bd dc 10 9f 3d 86 15 12 be
       0.024516672 -0.077119425 0.077668875 -0.14266023
000190 70 d5 8d 3d 1b 44 94 3d c6 9f 2b be da cf 50 3e
       0.069254756 0.072395526 -0.16760167 0.20391789
0001a0 a8 1b 1a bd 15 3d 39 3d 3f a1 6d bd 0d e0 07 bd
       -0.03762403 0.045224268 -0.058015104 -0.033172656
0001b0 ed 13 9f 3d 29 22 79 3e d5 a9 8f 3c ba 4e 9f 3d
       0.077674724 0.24329437 0.017537037 0.07778688
0001c0 e3 1c ab 3e 71 ff da bd 2a c6 ab bc 34 48 8c bd
       0.33420476 -0.10693253 -0.020968515 -0.06849709
0001d0 2f 21 bd 3d ed 2a e8 bb ce d3 3f be 71 9c 9d bc
       0.09234845 -0.0070851953 -0.18733141 -0.019239636
0001e0 3d c7 6e bd 08 ef a4 be 5b 17 61 be 57 49 d3 3d
       -0.058295477 -0.32213616 -0.21981566 0.10316723
0001f0 e1 80 2f be 43 23 96 bc 5e be 5c 3e 5f 94 05 be
       -0.17139007 -0.018327361 0.21556994 -0.1304488
000200 f4 af 31 3d 10 a9 7d 3c 73 64 d6 bd 56 32 17 3e
       0.043380693 0.015482202 -0.10468378 0.14765295
000210 f7 8e 6f bd 9e 92 d7 3d f1 48 f0 bc 81 09 e2 3c
       -0.05848595 0.10526012 -0.029331656 0.027592422
000220 f2 68 c9 bd 0b a4 bf bc a3 ce 35 3e a5 f5 21 be
       -0.0983447 -0.023393651 0.17754607 -0.15816362
000230 3c 90 aa 3d 2d 0d ef bd 78 ff 95 3b b4 07 b3 bd
       0.08328292 -0.11672435 0.0045775734 -0.08741704
000240 06 da 72 bc 31 a3 f6 b7 83 0f ce bc 91 c7 06 3c
       -0.014822489 -2.9401477e-05 -0.025153881 0.008226291
000250 3b 9e 7a 3d 8f b7 4f bc 98 06 38 bc 8c 94 6f bc
       0.061186057 -0.012678041 -0.011232041 -0.014622819
000260 78 e0 0a bc 25 4a bc 3c cb 38 37 3d 09 b5 0c 3c
       -0.008476369 0.022984574 0.044731896 0.008588084
000270 bc cf b6 3b d7 4e ea 39 cc 80 cb 3b 7b e5 82 3b
       0.005578963 0.00044690698 0.006210422 0.0039946414
000280 1a b3 d6 bb b6 31 12 bd e5 c2 29 3d 58 79 aa 3d
       -0.0065521123 -0.03569194 0.04144563 0.08323926
000290 eb bf 4d 3d 3e 70 e6 3d 7e 85 28 3e e0 c4 79 3c
       0.050231855 0.11251877 0.16457173 0.015244693
0002a0 e3 e8 89 3d e9 6d 9b 3d 55 63 73 3d 90 da 97 3b
       0.06733873 0.07589323 0.059420902 0.004634209
0002b0 fa e4 fe 3b c7 56 d8 ba a4 cc 4d 3c 76 a1 7b bc
       0.007778761 -0.0016505354 0.012560997 -0.0153583195
0002c0 3d 17 71 bc 6c 29 0a 3a 88 d2 78 3c 69 10 07 bc
       -0.014715013 0.00052704546 0.015186913 -0.008243659
0002d0 db 8c c1 3c b7 9b 1f bc c3 12 18 3d b5 01 98 bc
       0.023626735 -0.009741715 0.037127268 -0.018555501
0002e0 31 fb 69 3d 75 d4 33 bd c0 7b 98 3c 29 bd 50 bc
       0.05712432 -0.043903787 0.018613696 -0.012740412
0002f0 11 d9 22 3d 7a 21 9f bc b0 88 b5 3c be 3d db bb
       0.039757792 -0.019425143 0.022159904 -0.00669071
000300 4d 0b bc 3c 1b 50 da 3d f4 7a cf bb 6a 40 31 bc
       0.022954607 0.1065981 -0.006331796 -0.01081858
000310 52 48 52 3b 45 33 0e bd 06 fe f7 3b 1e 19 e9 bc
       0.0032086563 -0.034716863 0.0075681238 -0.02845436
000320 b3 71 19 bc 77 87 56 bd 98 0f 52 3c 65 68 30 bb
       -0.009365487 -0.052375283 0.012821101 -0.0026917693
000330 ac b2 10 3d 5d 3c 0d ba 7b 46 c5 3c e9 53 1c bd
       0.035326645 -0.0005387718 0.02408146 -0.03816596
000340 1c 2d 15 bd e8 de 69 bc e7 00 18 3c 94 d3 2a b9
       -0.036419973 -0.014274336 0.009277559 -0.00016291282
000350 e8 8e a5 3b 12 99 4e 3c d5 eb 42 3d 6d 57 a8 bc
       0.005052436 0.012609737 0.04758819 -0.0205495
000360 53 7a 82 3c 24 0f 99 3c 36 c4 1c 3c 40 6c 70 bc
       0.01592747 0.018683977 0.009568265 -0.014674246
000370 07 f2 34 bb bd 5a 5e bb 5e 2d 8e bb 82 0d c1 b9
       -0.002761008 -0.0033928596 -0.0043389043 -0.00036821893
000380 79 b2 07 ba be c9 39 bb 24 73 24 3d 82 1d 09 bb
       -0.0005176436 -0.0028349007 0.04014887 -0.002092213
000390 54 36 aa bc a0 95 ef bc 55 47 22 bc fa 3e 3c bd
       -0.020777859 -0.029246151 -0.009904702 -0.045958497
0003a0 a1 ca 34 bc 9e ba 5d bb 58 fd 93 bb 57 f1 06 3c
       -0.011034639 -0.0033833156 -0.004516285 0.008236251
0003b0 24 20 85 ba 82 71 ac bc 7d 59 0b bc cd b0 6d 3d
       -0.0010156673 -0.021050218 -0.008505222 0.05802994
0003c0 ad 58 49 bd e7 58 ec 39 5a 69 07 bd 7f 85 7e bc
       -0.049156833 0.00045079665 -0.033059455 -0.015534758
0003d0 e6 21 94 bc b9 eb f3 bc c6 96 9e 3d ec 2e 0b bc
       -0.01808257 -0.029775487 0.077436015 -0.008495074
0003e0 51 b8 bc bc e2 fc 50 3c 74 ea 3d 3b 66 ed 67 bc
       -0.023037108 0.012755604 0.0028978856 -0.014155721
0003f0 f4 d0 c8 3c 28 97 f1 3a 42 e9 bc 3c f7 e7 ed 3c
       0.0245137 0.0018431889 0.023060445 0.029041274

net.resblocks.0.recurrent_block.out_gate.bias f4 [16]
000000 ef 0f a7 be fb 40 46 3e 17 b1 4b 3e 6c 07 b9 3d
       -0.32629344 0.19360726 0.19891773 0.09034619
000010 a1 92 c8 be e2 75 7b bd 28 f2 59 3d 22 5f d6 3e
       -0.3917437 -0.06139172 0.053209454 0.41869456
000020 f4 d8 37 3e 0f ad bb bd 57 94 d7 be d3 63 36 3e
       0.17953855 -0.09163868 -0.42105362 0.17811517
000030 72 a1 68 be a0 85 23 bf 05 b2 f3 3e 5e e3 4d 3e
       -0.22717836 -0.6387577 0.47596756 0.20106265
