pretrained/firenet_1000_half.onnx (onnx, 80391 bytes, 23 tensors)

net.head.conv.conv2d.bias f2 [16]
000000 69 b3 d1 29 74 ab 64 2b a1 96 05 b0 ff 16 fa ab
       -0.2316 0.04544 -0.05823 0.05774 -0.001618 -0.1256 0.001708 -0.06232
000010 83 9b 7c 2a 37 28 05 92 46 8d db 26 2e a6 58 9b
       -0.003668 0.05066 0.03293 -0.000735 -0.0003219 0.02678 -0.02414 -0.003586

net.head.conv.conv2d.weight f2 [16, 5, 3, 3]
000000 3b 23 09 ac 4a 22 3b ae 23 ac 07 af a1 25 45 ad
       0.01412 -0.06305 0.01228 -0.09735 -0.06464 -0.1098 0.02199 -0.08234
000010 3f 24 4f 1d ca 2a f6 1d a8 2c 3d 31 08 2e 7e 1f
       0.01659 0.005184 0.05304 0.00582 0.07275 0.1637 0.09424 0.007317
000020 34 2c c8 91 d0 20 ce ae f7 97 43 af ee b6 ca af
       0.0657 -0.0007057 0.0094 -0.1063 -0.001945 -0.11346 -0.433 -0.1217
000030 32 21 48 ae 71 15 00 21 19 2c 2b 26 00 27 7d 38
       0.01015 -0.09814 0.001328 0.009766 0.064 0.0241 0.02734 0.561
000040 3b 2a 2b 1f 71 29 3f 24 be 28 c0 a5 ac 29 04 a0
       0.04868 0.007 0.0425 0.01659 0.03705 -0.02246 0.0443 -0.00784
000050 89 b6 8f a9 63 29 70 9b fc 28 0d 21 43 24 3c 95
       -0.4084 -0.04343 0.04208 -0.003632 0.03894 0.009865 0.01665 -0.001278
000060 90 28 5e 2c 03 21 ee 20 b5 24 3a 1f c6 1e 68 24
       0.03564 0.06824 0.00979 0.00963 0.01839 0.007057 0.006615 0.01721
000070 b8 a0 fb 2c 8c 2d be 1f 44 21 3c 25 e8 0e 45 24
       -0.00922 0.0778 0.0867 0.00756 0.010284 0.02045 0.0004215 0.01668
000080 af 25 27 a2 22 2f 88 2f 07 25 be 25 64 27 b5 18
       0.0222 -0.01202 0.11145 0.1177 0.01964 0.02243 0.02887 0.002298
000090 c6 24 f3 23 74 9f c2 34 a4 34 e9 1b 24 2e d2 2b
       0.01865 0.015526 -0.00728 0.2974 0.29 0.003862 0.09595 0.0611
0000a0 7d 1c 9a a3 d9 0e d3 19 ca 2d 0a 2f 5c 12 c7 a2
       0.004383 -0.01485 0.000418 0.002844 0.09045 0.11 0.0007763 -0.01324
0000b0 82 21 c9 16 3b 16 e9 13 1d 17 5e 93 3e 20 fc 15
       0.01076 0.001657 0.001521 0.0009656 0.001737 -0.0008993 0.008286 0.001461
0000c0 25 1b 42 9b e1 93 45 92 13 99 73 0a c7 9b 58 0e
       0.003489 -0.003544 -0.000962 -0.0007653 -0.002478 0.0001968 -0.003798 0.0003872
0000d0 e3 9f a6 9c e2 9d 4f 9c 33 85 ba 9d e2 01 2d 9c
       -0.0077 -0.00454 -0.005745 -0.004208 -7.933e-05 -0.005592 2.87e-05 -0.004078
0000e0 91 25 32 9d 5a 18 cd 99 2a 17 3d 9f 67 21 43 9b
       0.02174 -0.005074 0.002125 -0.002832 0.001749 -0.00707 0.01055 -0.003546
0000f0 72 21 e4 ad ee 17 44 9c 85 20 0d 9a de 9a aa 24
       0.010635 -0.09204 0.001936 -0.004166 0.00883 -0.002954 -0.003353 0.01822
000100 a9 8d 7e 22 ea bc 03 22 1e 18 49 24 38 9b 56 22
       -0.0003455 0.01268 -1.229 0.01174 0.00201 0.01674 -0.003525 0.012375
000110 c6 8b f1 27 e2 b0 64 ad cd 2b df 2a d6 25 e9 26
       -0.0002372 0.03102 -0.1526 -0.0842 0.06094 0.05368 0.0228 0.027
000120 0f 22 74 1f 2c 25 f5 af 95 ac 5b 2b b3 29 e9 21
       0.01183 0.00728 0.0202 -0.1243 -0.0716 0.05746 0.04453 0.01154
000130 86 20 3d 11 c6 1f db 25 a4 af 7e ab ba 2c d7 29
       0.008835 0.0006394 0.00759 0.02287 -0.1194 -0.05853 0.07385 0.04562
000140 91 25 1f 26 e8 a7 08 a0 b8 28 24 b1 4a ab 64 2b
       0.02174 0.02391 -0.03088 -0.00787 0.03687 -0.1606 -0.05695 0.05774
000150 64 9f 5a 19 a1 26 b5 a9 11 9c 07 9f ba 20 d0 2d
       -0.007217 0.002613 0.0259 -0.0446 -0.00397 -0.006863 0.00923 0.0908
000160 2c 23 7b a5 4b a1 04 a0 e7 96 53 a3 2c 1a 13 9e
       0.01401 -0.02141 -0.01034 -0.00784 -0.001685 -0.014305 0.003014 -0.00593
000170 7f a5 4e 25 19 8a 09 a4 9c 1a 58 14 36 a2 88 1e
       -0.02147 0.02072 -0.0001861 -0.01576 0.003227 0.0010605 -0.01213 0.00638
000180 84 22 f6 a9 cf 28 42 0f 00 a3 6f 21 6b 22 33 a6
       0.012726 -0.04657 0.03757 0.000443 -0.01367 0.01061 0.012535 -0.02422
000190 4e 98 2a a0 9e ae 24 2d 76 19 60 a8 55 24 7a 22
       -0.002102 -0.00813 -0.1034 0.0803 0.002666 -0.03418 0.01692 0.01265
0001a0 5b 9d 64 98 68 2d 7d b8 1c 38 45 1f 28 1f ce a1
       -0.00523 -0.002144 0.0845 -0.561 0.5137 0.0071 0.00699 -0.01134
0001b0 92 27 bb a5 a3 a1 a4 1a 96 b5 4f 35 58 25 fc a4
       0.02957 -0.02238 -0.01101 0.003242 -0.349 0.3318 0.02087 -0.01947
0001c0 ee 1c 94 20 24 a7 8e a2 68 a7 a1 aa a3 a9 bd a6
       0.004814 0.00894 -0.0279 -0.0128 -0.02893 -0.0518 -0.04404 -0.02632
0001d0 7f 34 a3 ab 71 17 9b a5 72 0b bf a9 47 ac 9e ac
       0.281 -0.05966 0.001817 -0.0219 0.0002272 -0.0449 -0.06683 -0.07214
0001e0 86 ac ae 35 4b ad db 1e bc a6 45 a4 88 a9 fb ac
       -0.0707 0.355 -0.0827 0.006695 -0.0263 -0.01668 -0.0432 -0.0778
0001f0 53 ab 90 ac 28 36 01 ad 70 22 61 a0 70 9b 7e ad
       -0.05722 -0.0713 0.3848 -0.0782 0.01257 -0.00855 -0.003632 -0.0858

net.head.recurrent_block.out_gate.bias f2 [16]
000000 7b 2a af a9 ce 30 04 a6 06 a5 60 19 d5 ab f9 2b
       0.05063 -0.0444 0.1501 -0.0235 -0.01962 0.002625 -0.0612 0.0623
000010 b9 2b df ad 1a a0 e5 30 06 ae ba 0f ff 1a f5 ad
       0.06033 -0.09174 -0.00801 0.153 -0.0941 0.0004716 0.003416 -0.0931

net.head.recurrent_block.out_gate.weight f2 [16, 32, 3, 3]
000000 1a 9a 94 22 14 29 76 aa 23 2f c1 a1 91 a9 de a8
       -0.00298 0.01285 0.03967 -0.05048 0.1115 -0.01124 -0.0435 -0.03802
000010 c8 a9 e8 a8 a6 2e 06 26 0e 26 01 31 28 31 4c 23
       -0.04517 -0.03833 0.1039 0.02353 0.02365 0.1564 0.1611 0.01425
000020 34 20 d6 2d f2 28 d1 b5 3b 2f ba a1 a0 b4 ef a9
       0.00821 0.0912 0.03864 -0.3635 0.113 -0.011185 -0.289 -0.04636
000030 1b 2c 15 23 58 27 01 31 09 2c 12 b0 03 2b c3 33
       0.06415 0.01383 0.02869 0.1564 0.06305 -0.1272 0.05478 0.2426
000040 59 ad ab ae ae 95 d6 b2 c5 ab 1b b2 d7 28 8d a9
       -0.08356 -0.1042 -0.001387 -0.2136 -0.0607 -0.1908 0.0378 -0.04337
000050 66 a5 b1 a1 94 ac a6 a8 39 2e 87 ad 67 b3 ec b0
       -0.02109 -0.011116 -0.07153 -0.03632 0.0972 -0.08636 -0.2313 -0.1538
000060 df aa 22 31 b0 a8 15 23 65 a7 41 26 26 ab 59 ac
       -0.05368 0.1604 -0.03662 0.01383 -0.02888 0.02443 -0.05585 -0.06793
000070 43 af 0d b1 f7 2a 92 ae 26 ae 5c 30 e6 30 d7 2c
       -0.11346 -0.1578 0.0544 -0.10266 -0.09607 0.1362 0.1531 0.0756
000080 a9 2c 0f 27 c6 32 c6 2f d8 ab 1d af 32 b0 5c 1c
       0.0728 0.02757 0.2117 0.12146 -0.06128 -0.11115 -0.1311 0.004257
000090 a7 b2 60 b8 f0 28 71 b2 bf b0 2b a8 59 a9 ed 2c
       -0.2079 -0.547 0.03857 -0.2013 -0.1483 -0.03256 -0.04178 0.07697
0000a0 e3 a4 52 30 39 2d a5 29 38 a6 52 b3 24 2c 1b 34
       -0.01909 0.135 0.0816 0.0441 -0.02429 -0.2288 0.0647 0.2566
0000b0 26 ac 7d 2d 19 a1 6c 28 fb 2c 4b 2a 1e 30 1e 2b
       -0.0648 0.08575 -0.00996 0.03455 0.0778 0.04916 0.1287 0.0556
0000c0 c8 99 27 10 22 a6 ee aa f1 b3 6e ad 4b 20 49 b8
       -0.002823 0.000507 -0.02396 -0.05414 -0.2482 -0.08484 0.008385 -0.5356
0000d0 b4 b0 ec ac 5b a7 02 2c 7d ac e0 b3 fd 28 22 b1
       -0.147 -0.0769 -0.02873 0.0626 -0.0701 -0.2461 0.03897 -0.1604
0000e0 78 a5 94 29 6a 2e eb 2d 34 23 b9 21 b1 24 aa 2a
       -0.02136 0.04358 0.1002 0.09247 0.01407 0.01118 0.01833 0.05206
0000f0 a0 30 c1 2e 10 ad 7c ad b7 ae 31 2e 3c ac 85 b3
       0.1445 0.1055 -0.0791 -0.0857 -0.1049 0.09674 -0.06616 -0.235
000100 7f ac ae 9d 5f b7 80 ae dc 27 b7 19 a7 22 b3 26
       -0.07025 -0.005547 -0.4607 -0.10156 0.0307 0.00279 0.01299 0.02617
000110 ca b1 85 28 74 ac 5b a6 cc 26 54 21 8e 2e 41 2a
       -0.1809 0.0353 -0.0696 -0.02483 0.02655 0.01041 0.1024 0.04886
000120 49 34 38 2e c9 32 a6 b2 1c ba 10 b6 fd 35 b5 ae
       0.2678 0.09717 0.212 -0.2078 -0.7637 -0.379 0.3743 -0.1048
000130 fc 31 c7 b3 f6 b4 e8 2d 62 b3 78 ac 8b 2a 05 2b
       0.187 -0.243 -0.31 0.0923 -0.2307 -0.0698 0.05112 0.05484
000140 46 35 03 35 72 b0 9b ae 82 2b a0 25 6c b0 34 a5
       0.3296 0.3132 -0.1389 -0.1032 0.05865 0.02197 -0.1382 -0.02032
000150 a7 ae 9f ae a0 ae b0 39 f9 37 e6 38 2b 34 64 b1
       -0.10394 -0.10345 -0.1035 0.711 0.4983 0.6123 0.2605 -0.1685
000160 f5 29 17 2f 27 36 63 b2 13 b4 d2 32 a4 ad 7c 30
       0.04654 0.1108 0.3845 -0.1996 -0.2546 0.2131 -0.08813 0.1401
000170 1d 2c 35 2b 4e a9 37 b0 d9 2d 45 2c f8 b6 06 b6
       0.0643 0.0563 -0.04144 -0.1317 0.0914 0.0667 -0.4355 -0.3765
000180 68 35 59 b5 4d 29 51 a8 11 b3 4d b8 bb b4 a6 b5
       0.338 -0.3342 0.0414 -0.03372 -0.2208 -0.5376 -0.2957 -0.353
000190 05 b0 9c b1 7b 24 2c a3 30 b1 2c b5 e6 b0 d4 b6
       -0.1256 -0.1753 0.0175 -0.01401 -0.1621 -0.3232 -0.1531 -0.4268
0001a0 ab b8 3c b5 75 b4 f8 aa 88 b5 c1 b3 4a b4 69 b0
       -0.5835 -0.3271 -0.2786 -0.05444 -0.3457 -0.2423 -0.268 -0.1378
0001b0 98 2a ca 34 42 29 d2 2c 76 a8 93 ae 6f ae 12 b4
       0.0515 0.2993 0.04108 0.0753 -0.03485 -0.1027 -0.1005 -0.2544
0001c0 03 b3 a2 24 e1 31 93 b5 c4 2c 53 ac 8c b2 5a 31
       -0.2191 0.0181 0.1837 -0.3484 0.07446 -0.06757 -0.2046 0.1672
0001d0 ea b1 cb b2 7a 27 8f 31 c0 b0 a2 32 c6 2e d9 30
       -0.1848 -0.2123 0.0292 0.1737 -0.1484 0.2073 0.10583 0.1515
0001e0 c6 a9 75 30 c9 31 46 24 b0 1b 6d a6 c0 29 c7 a4
       -0.0451 0.1393 0.1808 0.0167 0.003754 -0.0251 0.04492 -0.01866
0001f0 f0 10 e5 ac 65 25 06 a9 3f b4 ea 29 12 b1 65 38
       0.0006027 -0.0765 0.02107 -0.03925 -0.2654 0.0462 -0.1584 0.5493

net.head.recurrent_block.reset_gate.bias f2 [16]
000000 dd bb 29 ba 50 b6 b8 b6 d9 af 59 b8 ba b4 01 a5
       -0.983 -0.77 -0.3945 -0.42 -0.1226 -0.5435 -0.2954 -0.01955
000010 fb b8 16 b9 39 ba cb b1 2a ad c0 b5 a8 b7 2a b9
       -0.6226 -0.6357 -0.778 -0.181 -0.0807 -0.3594 -0.4785 -0.6455

net.head.recurrent_block.reset_gate.weight f2 [16, 32, 3, 3]
000000 4e b2 0c b5 13 ad f7 22 23 b6 f7 2d af 2f fb 2a
       -0.197 -0.3154 -0.0793 0.0136 -0.3835 0.0932 0.12006 0.05453
000010 fe 2b 19 b2 c4 32 31 2f 1e a0 29 33 2f 31 b9 b4
       0.06244 -0.1906 0.2114 0.11237 -0.00804 0.2238 0.162 -0.2952
000020 d3 af c0 b4 86 a8 65 26 3a a7 8e ac 54 28 df 2d
       -0.12225 -0.2969 -0.03534 0.02498 -0.02823 -0.07117 0.0338 0.09174
000030 39 ad 19 2f ae 32 bb 34 b2 b5 4d a8 fa 2f 01 b8
       -0.0816 0.1109 0.2087 0.2957 -0.356 -0.0336 0.12463 -0.5005
000040 ee 31 16 b1 0b b8 8a 23 07 32 84 34 4e 2d d2 27
       0.1853 -0.1589 -0.5054 0.014725 0.1884 0.2822 0.0829 0.03055
000050 c2 2a 37 2d 90 35 fb 2d f6 27 05 26 4b ad f8 a7
       0.0528 0.0815 0.3477 0.09344 0.0311 0.02351 -0.0827 -0.03113
000060 79 b4 35 b7 ba a1 78 36 07 2f 08 2b 14 a7 06 31
       -0.2795 -0.4504 -0.011185 0.4043 0.1098 0.05493 -0.02765 0.157
000070 3e 37 6c 2c 19 b9 a0 b8 d8 34 e3 29 5f b2 22 b6
       0.4526 0.0691 -0.637 -0.578 0.3027 0.046 -0.1991 -0.3833
000080 43 a9 9f 24 19 b8 40 b5 66 b2 b4 af d3 b0 d5 b0
       -0.0411 0.01805 -0.512 -0.3281 -0.2 -0.12036 -0.1508 -0.151
000090 15 34 8e b6 f8 ac 8c b5 4e bb 66 b6 82 b0 27 b7
       0.2551 -0.4097 -0.07764 -0.3467 -0.913 -0.4 -0.1409 -0.447
0000a0 8f 91 8d 29 b2 31 26 2c b5 a4 95 af 4a ae 6c b1
       -0.0006785 0.04337 0.178 0.0648 -0.01839 -0.11847 -0.09827 -0.1694
0000b0 1c 32 3b b3 92 2e 30 36 4c 37 2d b0 0f b8 d4 14
       0.1909 -0.226 0.10266 0.3867 0.456 -0.1305 -0.5073 0.001179
0000c0 95 ad 02 34 a8 2d 71 b1 27 33 a1 2a d3 2d 89 34
       -0.0872 0.2505 0.0884 -0.17 0.2235 0.0518 0.091 0.2834
0000d0 2e 32 71 34 65 38 37 30 8e 38 9f 2c c0 36 ae 29
       0.1931 0.2776 0.5493 0.1317 0.5693 0.0722 0.4219 0.04437
0000e0 89 b8 e5 b0 c8 32 5f 2a 6a 2f d0 b9 7e b5 24 b9
       -0.567 -0.153 0.2119 0.04977 0.11584 -0.7266 -0.3433 -0.6426
0000f0 8e af 74 b2 a9 b0 e7 2c a8 35 21 a8 ef 1d 00 2a
       -0.11804 -0.2017 -0.1456 0.0766 0.3535 -0.03226 0.005795 0.04688
000100 d5 af c6 2c ad ac de 2c 8f a0 17 30 e2 ac d2 2e
       -0.1224 0.0746 -0.07306 0.07605 -0.0089 0.1278 -0.0763 0.10657
000110 4d b9 8e 33 5a 2d ee b8 f3 2d c2 25 f2 2f 59 29
       -0.6626 0.2361 0.0836 -0.616 0.09296 0.02249 0.12415 0.04178
000120 63 ab 9e 32 39 29 66 2e b8 30 e6 2d b0 ad 99 ad
       -0.0577 0.2068 0.0408 0.1 0.1475 0.09216 -0.08887 -0.08746
000130 09 b2 18 b2 0a af 50 a4 a6 30 76 b4 9c ae 70 b4
       -0.1886 -0.1904 -0.11 -0.01685 0.1453 -0.2788 -0.1033 -0.2773
000140 ba b7 31 b8 d8 b9 b7 b6 57 b1 6b bc 17 a3 ee 94
       -0.483 -0.524 -0.7305 -0.4197 -0.1669 -1.1045 -0.01385 -0.001204
000150 6f b4 d4 2d a1 94 e8 2e ac a4 94 af 99 31 b8 31
       -0.277 0.09106 -0.00113 0.1079 -0.01825 -0.1184 0.1749 0.1787
000160 b9 28 e4 a8 f9 ad 8d ae 47 b5 b3 3a 31 b7 25 30
       0.0369 -0.0382 -0.0933 -0.10236 -0.3298 0.8374 -0.4495 0.1295
000170 19 39 70 b4 ff ae e6 b6 92 b7 2f 34 b5 2c 4d 2e
       0.637 -0.2773 -0.1093 -0.4312 -0.4731 0.2615 0.07355 0.09845
000180 55 28 b0 2d 0c 29 d6 a6 4c aa be b1 5e ab d0 b6
       0.03384 0.08887 0.03943 -0.0267 -0.0492 -0.1794 -0.05756 -0.4258
000190 8c ad 29 b5 95 30 27 b5 72 b1 ec 28 b3 a6 2b 34
       -0.0867 -0.3225 0.1432 -0.322 -0.1702 0.03845 -0.02617 0.2605
0001a0 41 90 9b 21 5c 30 34 af d3 b1 e6 a9 23 96 c2 9e
       -0.0005193 0.01095 0.1362 -0.11255 -0.182 -0.04608 -0.001498 -0.0066
0001b0 16 ae 1d 29 9d b3 39 b4 bb b5 4a a1 1d b4 30 ad
       -0.0951 0.03995 -0.2379 -0.264 -0.3582 -0.01033 -0.257 -0.08105
0001c0 a2 28 37 2f 61 35 17 32 44 36 12 a9 8b 33 95 34
       0.0362 0.11273 0.3362 0.1903 0.3916 -0.0396 0.2357 0.2864
0001d0 9a a8 7d 34 65 ab 96 b5 01 b0 f3 aa 5d bb 82 b1
       -0.03595 0.2805 -0.05777 -0.349 -0.1251 -0.0543 -0.9204 -0.1721
0001e0 83 34 93 39 09 37 0b b5 9a b5 b5 ae 0c b4 2c b9
       0.282 0.697 0.4397 -0.3152 -0.35 -0.1048 -0.253 -0.6465
0001f0 54 26 85 b1 2f ad 1c 2f be af 5d 2c 2b b5 20 98
       0.02472 -0.1725 -0.081 0.1111 -0.121 0.0682 -0.323 -0.002014

net.head.recurrent_block.update_gate.bias f2 [16]
000000 5f 3c 0d b4 69 35 cc bd 8e a8 ab 3d db 34 35 3a
       1.093 -0.2532 0.3381 -1.449 -0.03558 1.417 0.3035 0.776
000010 7e 3a 52 b7 7b 35 6e 3a 05 3c df b1 70 3d b7 bc
       0.8115 -0.4575 0.3425 0.8037 1.005 -0.1835 1.359 -1.179

net.head.recurrent_block.update_gate.weight f2 [16, 32, 3, 3]
000000 75 29 1f 34 db 33 04 33 c8 b5 49 b1 f5 32 5c 30
       0.04263 0.2576 0.2455 0.2192 -0.3613 -0.1652 0.2174 0.1362
000010 4e 15 96 32 4a ab ed 38 ab af 2d b5 33 b4 3c 33
       0.001295 0.2058 -0.05695 0.6157 -0.1198 -0.3235 -0.2625 0.2261
000020 7e b3 73 a8 17 a4 d3 2d 6d b5 b2 25 45 34 13 2f
       -0.2341 -0.03476 -0.01598 0.091 -0.339 0.02225 0.2668 0.11053
000030 cf af d5 31 c7 b0 a6 b7 01 34 15 37 92 b3 d6 36
       -0.122 0.1823 -0.1493 -0.478 0.2502 0.4426 -0.2366 0.4272
000040 6a 39 ba b0 57 2f a2 34 50 b1 68 b1 8a a7 05 27
       0.677 -0.1477 0.1147 0.2896 -0.166 -0.169 -0.02945 0.02742
000050 54 35 7f a4 17 2c 5c b4 33 ae 9d b6 79 a1 5f 25
       0.333 -0.01756 0.0639 -0.2725 -0.09686 -0.4133 -0.01069 0.02098
000060 53 20 c9 b7 4c b4 7d 2e 87 a6 44 29 38 22 16 36
       0.008446 -0.4866 -0.2686 0.1014 -0.0255 0.04114 0.012146 0.3804
000070 1e b1 f5 28 92 2f d6 2f 42 a8 6a b4 2a 30 51 2d
       -0.1599 0.03873 0.1183 0.12244 -0.03326 -0.276 0.1301 0.08307
000080 ee 9a 42 2d 6f 2f 47 b8 4c 2f 0b 33 e7 a8 26 b0
       -0.003384 0.08215 0.11615 -0.5347 0.114 0.2201 -0.0383 -0.1296
000090 45 b0 62 b8 41 ab f8 b4 d7 b4 2c ad 32 a4 12 ad
       -0.1334 -0.548 -0.05667 -0.3105 -0.3025 -0.0808 -0.01639 -0.0792
0000a0 38 9a d7 a7 23 28 09 2d 0d 27 e9 35 11 ad 7d a5
       -0.003036 -0.03062 0.03232 0.0787 0.02754 0.3694 -0.07916 -0.02144
0000b0 29 24 55 b1 86 aa e4 30 09 9d 8d 30 85 2d 60 32
       0.01625 -0.1666 -0.05096 0.1528 -0.004917 0.1422 0.08624 0.1992
0000c0 9b a8 d4 32 87 32 2e a9 33 29 3b b5 b0 32 9c a7
       -0.03598 0.2134 0.204 -0.04047 0.04062 -0.327 0.209 -0.02972
0000d0 bb b0 6f ae a4 33 cb 2b 89 b1 19 ae c5 af 97 b2
       -0.1478 -0.1005 0.2388 0.06088 -0.173 -0.0953 -0.1214 -0.2059
0000e0 55 36 b2 a9 53 b2 8b 10 cf 21 7d 32 c5 33 25 27
       0.3958 -0.0445 -0.1976 0.0005546 0.011345 0.2028 0.2428 0.02791
0000f0 7a 34 38 b6 da b0 ac 33 34 2a 24 1d f6 2f c3 b3
       0.2798 -0.3887 -0.1516 0.2397 0.04846 0.00502 0.1244 -0.2426
000100 d4 28 e1 28 06 25 86 25 da 2c b5 b1 ac a3 35 b4
       0.03772 0.03812 0.01962 0.02158 0.0758 -0.1783 -0.014984 -0.263
000110 69 36 54 2c 83 b1 df 35 76 26 54 33 c4 2c 8c 34
       0.4006 0.0676 -0.1722 0.367 0.02524 0.229 0.07446 0.2842
000120 18 b0 da 2f e8 2c 5b b1 84 31 1d b0 46 2b 24 13
       -0.1279 0.1227 0.07666 -0.1674 0.1724 -0.1285 0.05682 0.0008717
000130 28 9a ae 2d ff 26 a4 34 b4 9c f2 35 e6 31 eb af
       -0.003006 0.08875 0.02733 0.29 -0.004593 0.3716 0.1843 -0.1237
000140 95 a5 ce 31 18 38 28 37 11 ad 5f 38 3e 34 0e b0
       -0.0218 0.1814 0.5117 0.4473 -0.07916 0.5464 0.2651 -0.1267
000150 2d ae 77 aa 7d b1 8e b2 e7 27 15 b1 ff 99 94 2f
       -0.0965 -0.0505 -0.1715 -0.2048 0.03087 -0.1588 -0.002928 0.1184
000160 38 2d df 28 9c a6 0e 2d 1d 31 01 2b 21 ad a6 2d
       0.08154 0.03806 -0.02582 0.079 0.1598 0.05472 -0.08014 0.08826
000170 27 b7 a5 9c 2e a8 79 34 30 ad cc 24 c0 2c 3a a8
       -0.447 -0.004536 -0.03265 0.2795 -0.08105 0.01874 0.0742 -0.03302
000180 1e 26 fa 2c 6c 2c 5e a4 34 a8 d3 a6 87 a5 0f 1c
       0.0239 0.07776 0.0691 -0.01706 -0.03284 -0.02666 -0.02159 0.003963
000190 fb 1b 21 21 5f ae 26 ac 8c a4 da ab 5a 23 7b 2a
       0.003897 0.01002 -0.09955 -0.0648 -0.01776 -0.06134 0.01436 0.05063
0001a0 45 2a 3a 2f 1b a9 fd 32 64 2a fc 14 2b ae 84 2d
       0.04898 0.1129 -0.0399 0.2184 0.04993 0.001217 -0.0964 0.0862
0001b0 44 b3 d5 b3 08 ab ae aa 1f af 12 ad 07 af 32 b0
       -0.227 -0.2448 -0.05493 -0.0522 -0.11127 -0.0792 -0.1098 -0.1311
0001c0 a2 b0 d3 a3 01 a9 1c aa 94 a9 b6 28 5e 9d 32 ac
       -0.1448 -0.01528 -0.0391 -0.04773 -0.04358 0.0368 -0.00524 -0.06555
0001d0 d7 20 5f a2 d8 a5 f2 aa cb ad ae 32 4f 1c cf 37
       0.00945 -0.01244 -0.02283 -0.05426 -0.0905 0.2087 0.004208 0.488
0001e0 8c 27 51 a9 14 25 26 22 71 24 68 b4 cd ae 5a 30
       0.02948 -0.04153 0.01984 0.01201 0.01735 -0.2754 -0.10626 0.136
0001f0 ba a8 9e a1 7e 2c 5d ad 05 30 96 24 dd a7 5d 2d
       -0.03693 -0.01097 0.0702 -0.0838 0.1256 0.01791 -0.03072 0.0838

net.pred.conv2d.weight f2 [1, 16, 1, 1]
000000 86 a0 f0 a4 30 a8 2e 22 ac a7 75 22 af 21 1b 24
       -0.008835 -0.01929 -0.0327 0.01207 -0.02997 0.01261 0.0111 0.01604
000010 29 24 d0 9e 4d a2 de a1 04 22 65 a1 78 a0 30 20
       0.01625 -0.006653 -0.01231 -0.01146 0.01175 -0.01054 -0.00873 0.00818

net.resblocks.0.conv.conv1.bias f2 [16]
000000 43 30 d8 2e 4d 2a ac 2a 8d b2 7a a0 5e 9c 7b 30
       0.1332 0.10693 0.04922 0.05212 -0.2047 -0.00874 -0.004265 0.14
000010 b5 af a8 27 04 31 20 2f a9 2b d3 2c a4 2a a2 32
       -0.1204 0.0299 0.1567 0.1113 0.05984 0.0754 0.05188 0.2073

net.resblocks.0.conv.conv1.weight f2 [16, 16, 3, 3]
000000 69 2c 91 1e 34 2b a5 ac 15 a8 93 2e da 34 f6 b4
       0.0689 0.006413 0.05627 -0.0726 -0.0319 0.1027 0.3032 -0.31
000010 87 2a 31 2c b7 ac 93 aa 06 2f 67 38 7f ad 49 25
       0.051 0.0655 -0.07367 -0.05136 0.10974 0.5503 -0.0859 0.02065
000020 bc af 46 b2 ba b3 06 a0 36 31 44 b4 29 b0 c6 88
       -0.12085 -0.196 -0.2415 -0.00786 0.1628 -0.2666 -0.13 -0.0001457
000030 7d b2 5f a8 24 2c 59 b2 64 a8 50 ad 35 b4 bc a3
       -0.2028 -0.03415 0.0647 -0.1984 -0.0343 -0.083 -0.263 -0.01511
000040 29 b4 50 ac 52 ae fe b0 28 26 bb 24 48 31 68 ab
       -0.26 -0.0674 -0.09875 -0.156 0.02405 0.01848 0.165 -0.05786
000050 a0 30 3d 9f 2c 31 3c b4 9d 28 79 29 3f a7 cc 27
       0.1445 -0.00707 0.1616 -0.2646 0.03604 0.04276 -0.0283 0.03046
000060 c6 ae 04 b4 28 b0 9a 32 ea ae 76 2b 2a b1 41 38
       -0.10583 -0.251 -0.1299 0.2063 -0.10803 0.0583 -0.1614 0.5317
000070 78 b0 62 a3 46 2b 06 ab 2e 2a f7 28 6d a3 57 ac
       -0.1396 -0.01442 0.05682 -0.05487 0.04828 0.0388 -0.0145 -0.0678
000080 1b ae 00 b1 7a b2 e3 30 46 ad 98 ab 1e 29 8b b1
       -0.0954 -0.1562 -0.2024 0.1527 -0.0824 -0.05933 0.03998 -0.1732
000090 79 2f 14 ac 8c 2c 40 2a 99 a8 87 97 be 30 91 a5
       0.11676 -0.0637 0.07104 0.04883 -0.03592 -0.001838 0.1482 -0.02174
0000a0 98 2d a1 2f 7a 30 fe 2f 7b 31 a3 34 43 32 08 28
       0.0874 0.1192 0.1399 0.1249 0.1713 0.2898 0.1957 0.0315
0000b0 51 31 78 30 42 30 e3 b4 2c 25 3e 35 9f 1c c9 b5
       0.1661 0.1396 0.133 -0.3054 0.0202 0.3276 0.004513 -0.3616
0000c0 d1 2c 3c b1 64 a9 3f ad ac 24 4a 23 7e a3 69 26
       0.07526 -0.1636 -0.0421 -0.082 0.01825 0.01424 -0.01463 0.02504
0000d0 1d ab 91 ac 07 af fd ab ce ad ce 30 f3 a9 51 2c
       -0.05557 -0.07135 -0.1098 -0.0624 -0.0907 0.1501 -0.04648 0.06744
0000e0 28 30 d3 2b 61 b6 21 2e d7 ac 20 24 a7 b1 cd 30
       0.1299 0.06113 -0.3987 0.09576 -0.0756 0.01611 -0.1766 0.15
0000f0 50 2f 6f b1 43 af 45 2a e5 2c e9 27 e8 2d d5 31
       0.11426 -0.1698 -0.11346 0.04898 0.0765 0.0309 0.0923 0.1823
000100 2f 2f 41 34 61 bb 73 30 60 2a 4b 2f 9e 28 95 a9
       0.11224 0.2659 -0.9224 0.139 0.0498 0.11395 0.03607 -0.0436
000110 73 2a 5c 2c a4 ab 4f 30 3c a0 76 2b ee 26 8a ab
       0.05038 0.0681 -0.0597 0.1346 -0.00827 0.0583 0.02707 -0.0589
000120 e9 ac c1 ae f4 a9 0b 30 67 32 c5 30 02 2a 9b 21
       -0.0767 -0.1055 -0.0465 0.1263 0.2001 0.149 0.04694 0.01095
000130 5c b3 ac 35 d5 2f 8a 37 f4 23 19 b2 ad 2e 82 b3
       -0.23 0.3545 0.1224 0.4712 0.01553 -0.1906 0.1043 -0.2346
000140 69 b7 13 b1 3a af 4d b1 f5 2d ec 2e a1 27 80 21
       -0.4631 -0.1586 -0.1129 -0.1656 0.0931 0.10815 0.0298 0.01074
000150 1d ad a7 28 c8 ac 9d a2 53 aa 83 23 63 2d 04 a2
       -0.0799 0.03635 -0.0747 -0.01292 -0.0494 0.01467 0.08417 -0.01175
000160 97 28 ec a4 09 8e 0e 1c 7e 30 15 2d 6d ac c4 29
       0.03586 -0.01923 -0.0003684 0.00396 0.1404 0.0794 -0.06915 0.04504
000170 80 b3 22 a8 29 2d 17 26 ea 26 e5 b1 f0 ad 2e b0
       -0.2344 -0.0323 0.0806 0.02379 0.02701 -0.1842 -0.0928 -0.1306
000180 e9 a8 5c b2 06 af 36 31 60 2b cd 2d d9 b0 ff ae
       -0.03836 -0.1987 -0.10974 0.1628 0.05762 0.09064 -0.1515 -0.1093
000190 2e 21 10 ac c6 ad 89 95 ef 9f ff 27 8b 17 f4 31
       0.01012 -0.0635 -0.0902 -0.001351 -0.007748 0.03123 0.001842 0.186
0001a0 a7 32 8e 28 3d 34 f4 31 a4 2b 68 b3 4c b4 3c a4
       0.2079 0.03558 0.265 0.186 0.0597 -0.2314 -0.2686 -0.01654
0001b0 69 24 1c a6 a9 29 69 ab d8 98 5d aa 7c 2d 4e 29
       0.01723 -0.02386 0.04422 -0.0579 -0.002365 -0.0497 0.0857 0.04144
0001c0 09 29 ce aa 6c 21 c7 a1 88 ae 0f 2c dc a8 de 2a
       0.03934 -0.05316 0.01059 -0.011284 -0.10205 0.0634 -0.03796 0.05365
0001d0 dc a9 8f a6 1c b1 64 a1 9f ad 80 a1 a7 2d 31 2c
       -0.04578 -0.02562 -0.1597 -0.01053 -0.0878 -0.01074 0.0883 0.0655
0001e0 46 2a 87 1c 2c a8 54 28 3e ae 88 a8 23 28 10 2e
       0.049 0.00442 -0.0326 0.0338 -0.09753 -0.0354 0.03232 0.0947
0001f0 94 a8 5c ad df 1e 6a a4 8d 2f 1d 31 df ac c1 a6
       -0.03577 -0.08374 0.00671 -0.01724 0.118 0.1598 -0.0761 -0.02638

net.resblocks.0.conv.conv2.bias f2 [16]
000000 d6 34 d2 30 ce b0 bd 2d a2 ae 5a 33 00 26 a3 ab
       0.3022 0.1506 -0.1501 0.08966 -0.10364 0.2297 0.02344 -0.05966
000010 17 b7 f2 33 2c 30 d9 30 bf a2 04 2b 8f 31 e5 33
       -0.443 0.2483 0.1304 0.1515 -0.013176 0.0548 0.1737 0.2467

net.resblocks.0.conv.conv2.weight f2 [16, 16, 3, 3]
000000 b4 b2 23 b4 b8 b4 56 b8 af b8 e7 b8 3c 8f 9a b6
       -0.2095 -0.2585 -0.295 -0.542 -0.5854 -0.613 -0.0004416 -0.4126
000010 94 ae 42 2a 39 29 b6 b0 37 2d 5c 30 7a b2 fd 2d
       -0.1028 0.0489 0.0408 -0.1472 0.0815 0.1362 -0.2024 0.09357
000020 c2 30 4d ad 6c a9 89 a1 9f af ee 32 8e b1 a7 2b
       0.1487 -0.0828 -0.04236 -0.01081 -0.1191 0.2166 -0.1736 0.05978
000030 a7 ad 25 30 bd 98 fb ac 61 a2 12 28 5c 2c 0b b2
       -0.0883 0.1295 -0.002314 -0.0778 -0.01246 0.0318 0.0681 -0.1888
000040 62 23 be 29 fd a9 02 aa 5f 32 bc 2d 12 2e 9c 26
       0.01442 0.04486 -0.04678 -0.04694 0.1991 0.0896 0.09485 0.02582
000050 20 b6 10 31 43 30 3c 35 a6 ac 66 a8 48 30 eb 29
       -0.3828 0.1582 0.1332 0.3271 -0.07263 -0.03436 0.1338 0.04623
000060 f0 1e ba 35 53 2b f0 2e 08 b0 c8 28 90 30 c1 a6
       0.006775 0.358 0.05722 0.1084 -0.126 0.03735 0.1426 -0.02638
000070 03 25 d1 2e 20 ad 37 29 f7 28 0e 30 27 25 c2 28
       0.01958 0.1065 -0.0801 0.04074 0.0388 0.1267 0.02013 0.03717
000080 d3 b2 c4 24 6c a4 b9 36 62 2e 92 a9 9b 28 17 2c
       -0.2133 0.01862 -0.01727 0.4202 0.09973 -0.04352 0.03598 0.0639
000090 7e 23 84 aa f9 a7 be b2 e8 b1 90 af 6d 28 50 aa
       0.01463 -0.0509 -0.03114 -0.2107 -0.1846 -0.11816 0.03458 -0.04932
0000a0 6f a5 e9 2c 4c b5 26 28 cf b0 bc 28 72 ae 54 aa
       -0.02122 0.0767 -0.331 0.0324 -0.1503 0.037 -0.1007 -0.04944
0000b0 0b ac fe 2c 1e ae ad a9 14 99 38 b0 af 33 a5 27
       -0.0632 0.078 -0.0956 -0.04434 -0.00248 -0.1318 0.2401 0.02986
0000c0 47 26 f0 ac f9 2c 91 b0 6f 2c a2 2c 5d b1 86 32
       0.02452 -0.07715 0.0777 -0.1427 0.0693 0.0724 -0.1676 0.2039
0000d0 d1 a8 ca 29 6d ab 3f a8 f9 2c c9 33 7d 24 fa 2c
       -0.03763 0.04523 -0.058 -0.03317 0.0777 0.2433 0.01753 0.07776
0000e0 59 35 d8 ae 5e a5 62 ac e9 2d 41 9f ff b1 ed a4
       0.3342 -0.10693 -0.02097 -0.0685 0.09235 -0.007084 -0.1874 -0.01924
0000f0 76 ab 27 b5 09 b3 9a 2e 7c b1 b1 a4 e6 32 2d b0
       -0.0583 -0.322 -0.2198 0.10315 -0.1714 -0.01833 0.2156 -0.1305
000100 8d 29 ed 23 b3 ae ba 30 7c ab bd 2e 82 a7 10 27
       0.04337 0.01548 -0.1047 0.1477 -0.05847 0.1053 -0.02933 0.02759
000110 4b ae fd a5 ae 31 10 b1 55 2d 78 af b0 1c 98 ad
       -0.0983 -0.02339 0.1775 -0.1582 0.0833 -0.1167 0.004578 -0.0874
000120 97 a3 ed 81 70 a6 36 20 d5 2b 7e a2 c0 a1 7d a3
       -0.014824 -2.94e-05 -0.02515 0.008224 0.0612 -0.01268 -0.01123 -0.014626
000130 57 a0 e2 25 ba 29 66 20 b6 1d 52 0f 5c 1e 17 1c
       -0.00848 0.02298 0.04474 0.00859 0.005577 0.0004468 0.00621 0.003994
000140 b6 9e 92 a8 4e 29 54 2d 6e 2a 34 2f 44 31 ce 23
       -0.006554 -0.0357 0.04144 0.08325 0.05023 0.11255 0.1646 0.01524
000150 4f 2c db 2c 9b 2b bf 1c f7 1f c3 96 6e 22 dd a3
       0.0673 0.07587 0.05942 0.004635 0.00778 -0.001651 0.01256 -0.01536
000160 89 a3 51 10 c7 23 39 a0 0c 26 fd a0 c1 28 c0 a4
       -0.01472 0.000527 0.01519 -0.00825 0.02362 -0.00974 0.03714 -0.01855
000170 50 2b 9f a9 c4 24 86 a2 17 29 f9 a4 ac 25 da 9e
       0.05713 -0.0439 0.01862 -0.01274 0.03976 -0.01942 0.02216 -0.00669
000180 e0 25 d3 2e 7c 9e 8a a1 92 1a 72 a8 c0 1f 49 a7
       0.02295 0.1066 -0.006332 -0.01082 0.003208 -0.03473 0.00757 -0.02846
000190 cc a0 b4 aa 90 22 83 99 86 28 6a 90 2a 26 e3 a8
       -0.00937 -0.05237 0.01282 -0.002691 0.03534 -0.000539 0.02408 -0.03818
0001a0 a9 a8 4f a3 c0 20 57 89 2c 1d 75 22 17 2a 43 a5
       -0.0364 -0.014275 0.00928 -0.000163 0.00505 0.01261 0.04758 -0.02055
0001b0 14 24 c8 24 e6 20 83 a3 a8 99 f3 9a 71 9c 08 8e
       0.01593 0.01868 0.00957 -0.01467 -0.002762 -0.003393 -0.004337 -0.000368
0001c0 3e 90 ce 99 24 29 49 98 52 a5 7d a7 12 a1 e2 a9
       -0.000518 -0.002834 0.04016 -0.002092 -0.02078 -0.02925 -0.0099 -0.04596
0001d0 a6 a1 ee 9a a0 9c 38 20 29 94 64 a5 5b a0 6e 2b
       -0.01103 -0.003384 -0.004517 0.00824 -0.001016 -0.02106 -0.00851 0.05804
0001e0 4b aa 63 0f 3b a8 f4 a3 a1 a4 9f a7 f5 2c 59 a0
       -0.04916 0.0004508 -0.03305 -0.01553 -0.01808 -0.02977 0.07745 -0.00849
0001f0 e6 a5 88 22 ef 19 3f a3 47 26 8d 17 e7 25 6f 27
       -0.02304 0.01276 0.002897 -0.01415 0.02452 0.001843 0.02306 0.02904

net.resblocks.0.recurrent_block.out_gate.bias f2 [16]
000000 38 b5 32 32 5e 32 c8 2d 45 b6 dc ab d0 2a b3 36
       -0.3262 0.1936 0.199 0.09033 -0.3918 -0.0614 0.05322 0.4187
000010 bf 31 dd ad bd b6 b3 31 45 b3 1c b9 9e 37 6f 32
       0.1796 -0.0916 -0.4211 0.1781 -0.2272 -0.6387 0.476 0.201

net.resblocks.0.recurrent_block.out_gate.weight f2 [16, 32, 3, 3]
000000 fb 2d 21 1b 5d 2b 7e ac 4d 29 b4 ae 1a a9 64 aa
       0.09344 0.00348 0.05753 -0.0702 0.0414 -0.10474 -0.03986 -0.04993
000010 99 b1 1d 27 b2 a9 53 b2 3c 24 31 b1 fa 2e 77 9d
       -0.1749 0.02779 -0.0445 -0.1976 0.01654 -0.1622 0.109 -0.005337
000020 f2 b0 08 2f 30 a9 86 a8 b1 2c f9 b0 eb 1d 89 a0
       -0.1545 0.10986 -0.04053 -0.03534 0.0733 -0.1554 0.00578 -0.00886
000030 b3 a6 6b 2a f3 25 5d a1 05 17 6d 2d af a8 b6 ac
       -0.02617 0.05014 0.02324 -0.010475 0.001714 0.0848 -0.0366 -0.0736
000040 41 ae 6f a8 cd a5 72 27 f3 ac 02 1c 25 31 1e ae
       -0.0977 -0.03464 -0.02266 0.02908 -0.07733 0.003914 0.1608 -0.0956
000050 b0 b0 0a b4 17 af 84 2e 06 b0 73 a0 c1 33 1d 32
       -0.1465 -0.2524 -0.1108 0.1018 -0.1257 -0.00869 0.2423 0.191
000060 f5 34 8e ac 8a 32 a0 30 e0 b3 4e b1 48 ac f8 2a
       0.3098 -0.07117 0.2043 0.1445 -0.2461 -0.1658 -0.0669 0.05444
000070 f1 b0 67 28 d2 af 9f 2b 12 ac a3 30 af b1 33 ae
       -0.1544 0.0344 -0.1222 0.05954 -0.0636 0.1449 -0.1776 -0.09686
000080 03 b3 f2 b4 f8 9f 47 a9 f0 a9 4e 28 be ae a7 2a
       -0.2191 -0.309 -0.007782 -0.04123 -0.0464 0.03363 -0.10535 0.05197
000090 74 20 6f 22 0b ad b0 2b 8e ad 10 2b 4a 27 a8 a0
       0.0087 0.012566 -0.0788 0.06006 -0.0868 0.05518 0.02847 -0.009094
0000a0 cb 23 73 a7 e3 a4 9c a5 e0 29 52 2e a4 2f 12 2e
       0.01522 -0.0291 -0.01909 -0.02191 0.0459 0.09875 0.1194 0.09485
0000b0 27 20 63 2f 23 29 91 2c 01 a0 1d b1 8a a9 ab a2
       0.00811 0.1154 0.04013 0.07135 -0.00782 -0.1598 -0.04327 -0.01302
0000c0 85 23 56 1d a8 b4 13 a4 a4 29 1d 22 bd a9 e3 2e
       0.01469 0.00521 -0.291 -0.01591 0.04407 0.01194 -0.04483 0.1076
0000d0 6a 31 06 2e 20 2d d2 30 02 28 92 24 94 a5 44 2b
       0.1692 0.0941 0.0801 0.1506 0.0313 0.01785 -0.02179 0.05676
0000e0 17 ac 0a ad 3c a2 eb 2b db 27 12 2c 0e a6 16 28
       -0.0639 -0.07874 -0.01218 0.06186 0.03069 0.0636 -0.02365 0.03192
0000f0 37 28 91 a5 49 aa 0b a5 0c b0 4e 11 9d 29 bb 28
       0.03293 -0.02174 -0.0491 -0.0197 -0.1265 0.0006475 0.04385 0.03696
000100 48 2a b2 ae 47 2d de 94 68 2c 7e a4 03 a8 3f 2a
       0.04907 -0.1046 0.08246 -0.001188 0.06885 -0.01755 -0.03134 0.0488
000110 c1 aa b1 af 7f 25 44 28 d5 28 89 ae 40 ae 90 ab
       -0.05276 -0.1202 0.02147 0.03333 0.03775 -0.1021 -0.09766 -0.05908
000120 52 ad 2b 2b ce af c0 ab 5c b4 0a ae ae 33 53 34
       -0.0831 0.056 -0.12195 -0.06055 -0.2725 -0.09436 0.24 0.2703
000130 55 37 f4 b6 45 b4 3d 2d d5 af d1 23 d5 b3 8d 35
       0.4583 -0.4346 -0.2668 0.08185 -0.1224 0.01527 -0.2448 0.347
000140 63 b2 0d 2f 9f 38 3a ba 2f 3b 22 ba 0b bc db b8
       -0.1996 0.11017 0.5776 -0.7783 0.898 -0.7666 -1.011 -0.607
000150 e8 b4 da b8 3d b4 34 28 45 ae b4 b0 0c ad c3 25
       -0.3066 -0.6064 -0.265 0.03284 -0.09796 -0.147 -0.07886 0.0225
000160 9f a6 4b 28 61 95 7b b0 15 a9 08 2e ff 28 17 24
       -0.02586 0.03354 -0.001313 -0.14 -0.0397 0.09424 0.03903 0.01598
000170 f8 30 ee ad b8 b4 c3 ac 06 b1 ed 30 3b 2c 24 1e
       0.1553 -0.09265 -0.295 -0.0744 -0.157 0.1539 0.0661 0.005997
000180 fe b0 2c ac d7 ab 7e 31 78 20 0e b0 b6 b0 60 b0
       -0.156 -0.0652 -0.06125 0.1716 0.00873 -0.1267 -0.1472 -0.1367
000190 ac b0 45 12 88 32 ff ab da ab 0a 2d 7a b6 06 30
       -0.146 0.0007653 0.2041 -0.06247 -0.06134 0.07874 -0.4048 0.1257
0001a0 b3 af 68 32 bb b1 56 af 64 b3 83 b0 6e 28 22 34
       -0.1203 0.2002 -0.1791 -0.1146 -0.231 -0.141 0.0346 0.2583
0001b0 2d b0 2d 30 bf b1 03 30 73 30 58 33 63 27 ae 27
       -0.1305 0.1305 -0.1796 0.1254 0.139 0.2295 0.02885 0.03
0001c0 b0 b3 0a ae 0b 35 0b 2a 15 b8 01 20 22 b0 a8 b3
       -0.2402 -0.09436 0.3152 0.0472 -0.5103 0.00782 -0.1292 -0.2393
0001d0 a2 b5 53 b8 05 36 f6 b2 2a ab 09 27 df b6 1a b4
       -0.352 -0.5405 0.3762 -0.2175 -0.05597 0.02748 -0.4294 -0.2563
0001e0 a9 b3 65 bb cb b8 45 2c d7 ae b2 34 da 20 5b aa
       -0.2394 -0.9243 -0.599 0.0667 -0.1069 0.2935 0.009476 -0.04965
0001f0 22 b4 78 ac 15 2f 9d 36 a8 b8 6d 38 f9 ad b2 28
       -0.2583 -0.0698 0.11066 0.4133 -0.582 0.553 -0.0933 0.03668

net.resblocks.0.recurrent_block.reset_gate.bias f2 [16]
000000 b2 ac 4b 32 2a 27 86 32 a3 a8 f4 ad 11 29 19 2d
       -0.07336 0.1967 0.02798 0.2039 -0.03622 -0.093 0.03958 0.07965
000010 d4 2f ef 26 e6 33 fe b5 ad 2a 98 34 b0 ae 8d 30
       0.1223 0.02708 0.2468 -0.3745 0.05215 0.287 -0.1045 0.1422

net.resblocks.0.recurrent_block.reset_gate.weight f2 [16, 32, 3, 3]
000000 0c a8 17 b5 18 b3 75 30 6c a8 6b 32 6d 34 db 24
       -0.03162 -0.318 -0.2217 0.1393 -0.03455 0.2006 0.2766 0.01897
000010 52 26 0a a9 06 25 74 2d 8d ad 8e b5 ee 9f 43 32
       0.02469 -0.03937 0.01962 0.0852 -0.08673 -0.3472 -0.007744 0.1957
000020 03 2c db 2c 59 35 8c 1f f3 b5 7d 33 60 a2 aa b1
       0.0627 0.07587 0.3342 0.00737 -0.3718 0.234 -0.01245 -0.177
000030 04 32 0f af 78 b8 40 30 8f ad 80 ad f0 31 e3 2a
       0.188 -0.1103 -0.5586 0.1328 -0.08685 -0.08594 0.1855 0.0538
000040 1f 21 18 35 7f a8 f9 a9 13 34 06 af 0d 34 9a 31
       0.01 0.3184 -0.03513 -0.04666 0.2546 -0.10974 0.2532 0.175
000050 95 b3 ca b0 c4 36 28 2d 76 32 fc b0 8c b4 6f bc
       -0.2369 -0.1497 0.4229 0.08057 0.2019 -0.1558 -0.2842 -1.108
000060 73 39 b0 3a 73 32 18 33 4a 39 34 30 4e 34 2b 1c
       0.681 0.836 0.2015 0.2217 0.661 0.1313 0.269 0.00407
000070 63 2b b3 26 ec 24 cc a3 6f 1e 51 22 56 ae bb a8
       0.0577 0.02617 0.01923 -0.01523 0.006283 0.01234 -0.099 -0.03696
000080 25 30 85 2c a9 2e 3e ae 22 a6 2a 2e 75 9c 74 2e
       0.1295 0.0706 0.10406 -0.09753 -0.02396 0.0963 -0.004353 0.1008
000090 84 a8 36 30 80 a8 aa b2 7c b0 66 30 19 b0 ef 31
       -0.03528 0.1316 -0.03516 -0.2083 -0.1401 0.1375 -0.128 0.1854
0000a0 d9 ae 2b aa c4 27 f7 b5 8b a2 fd 2d b3 2d f6 b0
       -0.107 -0.0482 0.03033 -0.3728 -0.01278 0.09357 0.08905 -0.155
0000b0 f3 ae d8 a9 60 b5 d5 a8 8e 2e da ae 12 32 e9 30
       -0.1086 -0.04565 -0.336 -0.03775 0.1024 -0.10706 0.1897 0.1534
0000c0 54 ae 9f 30 47 34 b9 b7 fe 2a d8 9e 97 af 10 34
       -0.0989 0.1444 0.2673 -0.4827 0.05463 -0.006683 -0.1186 0.254
0000d0 f7 2e 4c b6 23 b4 34 b4 8d 32 b4 af d6 34 cd 2f
       0.1088 -0.3936 -0.2585 -0.2627 0.2047 -0.12036 0.3022 0.1219
0000e0 9f ac 86 aa 28 b5 62 a7 18 b1 31 b4 54 b1 f0 b4
       -0.0722 -0.05096 -0.3223 -0.02884 -0.1592 -0.262 -0.1665 -0.3086
0000f0 19 b0 c8 b5 18 28 ec 34 75 32 63 33 9d b5 fa b0
       -0.128 -0.3613 0.03198 0.3076 0.2018 0.2308 -0.3508 -0.1555
000100 89 b3 66 2c e9 36 16 30 83 b4 b7 2c 33 b4 ee a5
       -0.2355 0.0687 0.432 0.1277 -0.282 0.07367 -0.2625 -0.02316
000110 5e ae 76 a7 47 2f 2a 2a f2 aa 10 36 1c ae 24 28
       -0.0995 -0.02914 0.1137 0.04816 -0.05426 0.379 -0.09546 0.03235
000120 3c 30 f6 30 eb 2d 8c 30 61 31 d9 26 1f 2c d6 ad
       0.1323 0.155 0.09247 0.1421 0.1681 0.02675 0.0644 -0.0912
000130 4e ae a4 3a 99 30 1b 38 a1 ad 0a b2 fd 29 d0 b2
       -0.0985 0.83 0.1437 0.513 -0.08795 -0.1887 0.04678 -0.2129
000140 1d b5 3c b8 f4 32 0f 23 42 2f 79 2a f1 af 54 ad
       -0.3196 -0.5293 0.2173 0.01379 0.1134 0.05057 -0.1241 -0.08325
000150 f0 2f f2 b1 04 b0 b5 a4 5c b2 d0 a6 47 2b 6a a7
       0.124 -0.1858 -0.1255 -0.01839 -0.1987 -0.02661 0.05685 -0.02896
000160 07 a9 dc 2d 9b a9 39 aa 47 b4 25 b2 78 b1 83 a8
       -0.03928 0.09155 -0.0438 -0.0486 -0.2673 -0.192 -0.1709 -0.03525
000170 88 ad 70 b0 81 32 79 30 38 35 55 b7 bd ab 9f 39
       -0.0864 -0.1387 0.2032 0.1398 0.3262 -0.4583 -0.06046 0.7026
000180 17 b4 c6 ad b3 38 74 ba 50 af 32 38 da ac 70 2f
       -0.2556 -0.0902 0.5874 -0.8066 -0.11426 0.5244 -0.0758 0.1162
000190 d0 b4 ed 2d c2 36 a0 b0 6d b4 4c 18 16 b4 b8 ac
       -0.3008 0.0926 0.4224 -0.1445 -0.2766 0.002098 -0.2554 -0.0737
0001a0 3b 2c 0c a8 b1 b0 65 a3 02 ad 58 b1 59 2a cc b2
       0.0661 -0.03162 -0.1466 -0.01444 -0.07825 -0.167 0.0496 -0.2124
0001b0 25 b0 b3 ad b5 af f9 ad 03 a4 17 b0 48 b2 6e b3
       -0.1295 -0.08905 -0.1204 -0.0933 -0.01567 -0.1278 -0.1963 -0.2322
0001c0 84 b2 9a 33 32 31 f7 2c e9 30 e7 37 0c 35 2d 34
       -0.2036 0.2375 0.1624 0.0776 0.1534 0.494 0.3154 0.261
0001d0 8e 33 99 32 60 a8 06 2c 0e 9c 6d b5 0f ac 19 2e
       0.2361 0.2062 -0.03418 0.06287 -0.00396 -0.339 -0.0634 0.0953
0001e0 33 30 f9 8f 95 2f ab 20 44 a5 12 25 5a 25 df 2a
       0.1312 -0.0004866 0.11847 0.00912 -0.02057 0.0198 0.0209 0.05368
0001f0 31 a9 fc 2d f6 2a f2 a9 83 24 a3 20 09 a4 c6 2b
       -0.04056 0.0935 0.05438 -0.04645 0.01762 0.009056 -0.01576 0.06073

net.resblocks.0.recurrent_block.update_gate.bias f2 [16]
000000 58 38 cc 3c 5c b8 b0 ba 57 3b d5 3b 6a 35 d3 38
       0.543 1.199 -0.545 -0.836 0.9175 0.979 0.3384 0.603
000010 0b b8 89 2a c2 b5 8a a6 99 3b 8e 3c 22 b2 9f b4
       -0.5054 0.05106 -0.3599 -0.02554 0.9497 1.139 -0.1917 -0.2888

net.resblocks.0.recurrent_block.update_gate.weight f2 [16, 32, 3, 3]
000000 9d 36 9b b6 48 38 93 34 96 ac 51 38 b7 2f 44 b4
       0.4133 -0.4128 0.535 0.286 -0.07166 0.5396 0.12054 -0.2666
000010 99 39 9d 32 6e 30 06 33 01 36 33 39 c5 31 0d 33
       0.6997 0.2067 0.1384 0.2195 0.3752 0.65 0.1803 0.2203
000020 9a b7 bf b5 fa 38 d6 33 48 33 4f 99 79 af 1d 30
       -0.475 -0.3591 0.622 0.2449 0.2275 -0.002592 -0.11676 0.1285
000030 d1 b2 7b b1 1d b6 c4 28 b3 ad 5e 31 fb 35 eb aa
       -0.213 -0.1713 -0.382 0.03723 -0.08905 0.1677 0.3738 -0.05405
000040 37 36 7d ad 3d b2 d4 30 de b8 d2 b8 f2 b9 50 b6
       0.3884 -0.08575 -0.195 0.1509 -0.6084 -0.6025 -0.743 -0.3945
000050 67 b5 5f aa 6c bb e4 b9 c5 bb 94 2a 60 b3 f9 b9
       -0.3376 -0.04977 -0.9277 -0.7363 -0.971 0.0514 -0.2305 -0.7466
000060 6c 35 f4 2f 1a ba bf b3 02 b8 07 bb be b5 49 28
       0.3389 0.12427 -0.7627 -0.2421 -0.501 -0.8784 -0.359 0.03348
000070 f7 34 0f 31 40 36 21 ac 1b 35 ef 37 ef 35 31 b4
       0.3103 0.1581 0.3906 -0.0645 0.319 0.4958 0.3708 -0.262
000080 62 b8 46 b0 07 2b 06 b0 22 b2 20 af 14 27 5e 2d
       -0.548 -0.1335 0.0549 -0.1257 -0.1917 -0.1113 0.02765 0.08386
000090 72 9e 47 1e be a4 35 a9 4c b7 65 35 de 2a 36 b0
       -0.006294 0.00613 -0.01852 -0.04068 -0.456 0.3372 0.05365 -0.1316
0000a0 85 b1 c9 2e fd 2c b7 31 07 1f c0 33 4c 31 a6 2f
       -0.1725 0.106 0.07794 0.1786 0.006863 0.2422 0.1655 0.1195
0000b0 e9 a8 a5 aa ab 35 0f b4 8a 34 0a 36 ca aa e9 a2
       -0.03836 -0.0519 0.3542 -0.2537 0.2837 0.3774 -0.05304 -0.0135
0000c0 a6 2d 00 b7 84 af 46 32 bc ae 13 a5 75 b4 11 b7
       0.08826 -0.4375 -0.11743 0.196 -0.1052 -0.01982 -0.2786 -0.4417
0000d0 38 ac af 32 5a ab af 35 bd 20 14 b2 17 36 93 36
       -0.0659 0.2089 -0.05743 0.3552 0.009254 -0.19 0.3806 0.411
0000e0 3b 2b 79 26 d0 35 30 b0 87 b0 b4 a7 8d 28 18 2a
       0.0565 0.02528 0.3633 -0.1309 -0.1415 -0.03009 0.03555 0.0476
0000f0 58 2e a2 b5 c9 b4 75 2f 84 b0 27 32 14 36 4d 2d
       0.0991 -0.352 -0.299 0.1165 -0.1411 0.1923 0.38 0.0828
000100 7a 31 5d ac 03 9f 55 b5 3d a9 e4 2e 8f 35 be 2e
       0.1711 -0.0682 -0.006847 -0.3333 -0.04092 0.10767 0.3474 0.10535
000110 91 b0 8f af df b1 44 2c ab 36 b1 34 d7 36 35 aa
       -0.1427 -0.1181 -0.1835 0.06665 0.4167 0.2932 0.4275 -0.0485
000120 83 b5 15 b1 a7 24 d6 2c 09 3c e5 38 0a ae a9 2f
       -0.3445 -0.1588 0.01817 0.07556 1.009 0.612 -0.09436 0.1197
000130 5e 36 88 32 e6 ad b5 33 0a a8 f3 b3 38 b5 ba 34
       0.398 0.2041 -0.09216 0.2408 -0.03156 -0.2484 -0.3262 0.2954
000140 bb b1 c6 b0 19 35 05 32 e5 32 20 33 3d 30 9e 2b
       -0.1791 -0.1492 0.3186 0.1881 0.2155 0.2227 0.1324 0.0595
000150 39 2e bf 2e 22 35 6b 2b 1f 9f fb 30 08 34 cf 2d
       0.0972 0.1054 0.3208 0.05795 -0.006954 0.1556 0.252 0.09076
000160 1d 2f 68 2c 42 30 dd 2d dc 29 53 a9 da a9 4d 9c
       0.11115 0.06885 0.133 0.0916 0.04578 -0.0416 -0.04572 -0.0042
000170 6f a8 0c 2c de ad 74 8d 43 33 5d aa df b0 0a 21
       -0.03464 0.06323 -0.0917 -0.0003328 0.2269 -0.0497 -0.1522 0.00984
000180 57 32 8d 2b ce 25 22 b5 b9 b3 a4 34 34 38 e6 99
       0.1981 0.059 0.02267 -0.3208 -0.2413 0.29 0.5254 -0.00288
000190 5c 37 41 34 63 a6 0f 32 b7 36 5c b4 3f a8 70 24
       0.46 0.2659 -0.02495 0.1893 0.4197 -0.2725 -0.03317 0.01733
0001a0 50 2d a0 2c c6 29 25 32 68 31 ff 2c 21 18 e9 1c
       0.083 0.07227 0.0451 0.192 0.169 0.07806 0.002016 0.004795
0001b0 10 2b c5 9f ec 2d c3 ae 5e b3 00 af 8c 34 2a aa
       0.05518 -0.007587 0.0925 -0.10565 -0.2302 -0.1094 0.2842 -0.04816
0001c0 74 30 3a 2e 94 b0 ad ab 08 b4 25 b5 e1 b1 d9 b4
       0.1392 0.0973 -0.1431 -0.05997 -0.252 -0.3215 -0.1837 -0.303
0001d0 e7 ac 57 24 e4 2e 27 39 c7 36 56 b4 9c 2a 70 b4
       -0.0766 0.01695 0.10767 0.644 0.4236 -0.271 0.05164 -0.2773
0001e0 b7 ac 0b 38 b9 39 02 ae e1 2d 0b a9 a8 a5 28 2c
       -0.07367 0.5054 0.7153 -0.0939 0.09186 -0.0394 -0.0221 0.06494
0001f0 11 2c cd b3 1a b4 6b b4 c9 35 2b ae 78 38 aa ab
       0.06354 -0.2438 -0.2563 -0.2761 0.3616 -0.0964 0.5586 -0.05988

net.resblocks.1.conv1.bias f2 [16]
000000 d1 32 21 33 84 0e 1f b5 2f 3c 95 a3 fd 30 e7 b2
       0.213 0.2228 0.0003977 -0.32 1.046 -0.01481 0.1559 -0.2157
000010 44 a7 06 b4 90 3c 38 b3 22 36 58 36 46 2b 99 31
       -0.02838 -0.2515 1.141 -0.2256 0.3833 0.3965 0.05682 0.1749

net.resblocks.1.conv1.weight f2 [16, 16, 3, 3]
000000 e9 b5 85 ae cb b2 4e b5 98 24 dc aa 18 ac 37 2f
       -0.3694 -0.10187 -0.2123 -0.3315 0.01794 -0.0536 -0.06396 0.11273
000010 b5 29 c3 ae 17 b3 88 b1 71 31 e8 a1 eb 1c 74 b2
       0.0446 -0.10565 -0.2216 -0.1729 0.17 -0.011536 0.004803 -0.2017
000020 0d 27 cc 2f 65 31 2f 38 43 30 4d b4 17 b9 a3 ac
       0.02754 0.1218 0.1686 0.523 0.1332 -0.2688 -0.636 -0.07245
000030 44 32 c3 b4 7a 30 1a 2e df 2c e7 31 7b ab 67 1e
       0.1958 -0.2976 0.1399 0.09534 0.0761 0.1844 -0.05844 0.006252
000040 95 a9 0e ae e9 b0 02 a7 13 b3 51 2b c6 b1 fa a9
       -0.0436 -0.0946 -0.1534 -0.02737 -0.2211 0.05716 -0.1804 -0.0467
000050 2a 2d ca b1 7f b0 36 af e4 b3 17 b8 cf ae 15 32
       0.0807 -0.1809 -0.1405 -0.1127 -0.2466 -0.511 -0.1064 0.1901
000060 43 32 85 1f ab ac 8b 35 2d 2e fb b2 32 31 22 b4
       0.1957 0.007343 -0.07294 0.3464 0.0965 -0.2181 0.1624 -0.2583
000070 49 ad af b0 a2 2f f5 aa 60 b4 0f ad 3e af d6 b2
       -0.0826 -0.1464 0.11926 -0.05435 -0.2734 -0.07904 -0.11316 -0.2136
000080 db b1 31 b0 8c 24 f8 9d f8 31 b8 a6 6c ae 1f 2b
       -0.183 -0.131 0.01776 -0.00583 0.1865 -0.02625 -0.10034 0.05563
000090 0b 2d 84 1e 03 30 7a ad 17 b0 17 24 22 2b 84 a7
       0.0788 0.006363 0.1254 -0.0856 -0.1278 0.01598 0.05573 -0.02936
0000a0 35 24 64 29 b6 25 60 a5 8c 25 e8 22 6e 27 3a ac
       0.01643 0.0421 0.02231 -0.021 0.02167 0.01349 0.02902 -0.06604
0000b0 f0 ae 31 ac 72 b0 dd 3a 4a b0 03 ab 0b b5 bf 21
       -0.1084 -0.0655 -0.1389 0.858 -0.134 -0.05478 -0.3152 0.01122
0000c0 ff b0 8d b6 df b0 3a 25 ac a9 8c b0 ba 2d 0a 24
       -0.1561 -0.4094 -0.1522 0.02042 -0.0443 -0.1421 0.0895 0.01578
0000d0 2d ac e7 af 36 18 3b ad 52 b7 78 ba 14 b5 e7 35
       -0.06525 -0.1235 0.002056 -0.0817 -0.4575 -0.8086 -0.3174 0.369
0000e0 0b 37 0b 33 ce a7 2c 35 08 9f f0 31 31 38 6c 28
       0.4402 0.2201 -0.03049 0.3232 -0.006866 0.1855 0.524 0.03455
0000f0 d6 2c a1 b5 b3 a8 2b a9 e7 ae 3c a0 01 b1 19 29
       0.07556 -0.3518 -0.0367 -0.04037 -0.10785 -0.00827 -0.1564 0.03983
000100 a5 b3 1d b7 7a b8 b1 b1 58 25 68 ac ce a8 84 28
       -0.2389 -0.4446 -0.5596 -0.1779 0.02087 -0.06885 -0.03754 0.03528
000110 1b 34 ea aa 6b 36 bb 32 7a ad 66 b2 ca b0 0f a4
       0.2566 -0.05402 0.4011 0.2103 -0.0856 -0.2 -0.1497 -0.01585
000120 6e b6 13 32 3e 35 d4 14 41 2b f5 2f b5 ae 05 b4
       -0.4019 0.1898 0.3276 0.001179 0.05667 0.1243 -0.1048 -0.2512
000130 17 b0 2f 28 ca ad 7a 2a fe 30 31 ad 84 b3 13 2e
       -0.1278 0.03268 -0.09045 0.0506 0.156 -0.0811 -0.2349 0.0949
000140 00 29 80 21 cd ab 95 31 ba 2c 39 b7 8c b0 cd 33
       0.03906 0.01074 -0.06094 0.1744 0.07385 -0.4514 -0.1421 0.2438
000150 6a b1 1d 33 5e 33 8e 88 9a 2c 4d 2f 12 aa 2b 2e
       -0.1692 0.2223 0.2302 -0.000139 0.0719 0.1141 -0.04742 0.0964
000160 ce 2c 8f ae ca aa 73 1f d8 aa 43 2c 4d b0 8d ae
       0.0751 -0.1025 -0.05304 0.007275 -0.05347 0.0666 -0.1344 -0.10236
000170 26 ac b6 b0 44 aa d7 2c ca 28 f6 b2 c5 32 d9 ae
       -0.0648 -0.1472 -0.04895 0.0756 0.0374 -0.2175 0.2115 -0.107
000180 92 2f bd b0 b1 b1 98 2b d3 26 b3 32 44 28 6a a3
       0.1183 -0.1481 -0.1779 0.05933 0.02666 0.2094 0.03333 -0.01448
000190 d5 a9 d8 b2 13 9c e5 2e 71 a8 5a 28 5b 2b 0b 1e
       -0.04556 -0.2139 -0.00398 0.1077 -0.0347 0.034 0.05746 0.0059
0001a0 2e 2c 08 ae 7b 33 7b ab 37 b6 9d 2d 9f aa 98 b3
       0.0653 -0.09424 0.2338 -0.05844 -0.3884 0.0877 -0.05173 -0.2373
0001b0 75 a4 3b 25 b0 2e 7a af 29 ac 72 2d 52 b0 59 ae
       -0.01741 0.02043 0.1045 -0.1168 -0.065 0.0851 -0.135 -0.0992
0001c0 6a 2c 77 b0 7b 9d c1 2c 09 a6 77 30 b9 ac 77 b0
       0.069 -0.1395 -0.005352 0.0743 -0.02357 0.1395 -0.0738 -0.1395
0001d0 09 2d 5b 2b 4d b2 8b ab 85 a9 5a 23 ff 1c 0e 36
       0.0787 0.05746 -0.1969 -0.05893 -0.04312 0.01436 0.00488 0.3784
0001e0 87 a9 a1 a9 12 b4 4e 30 82 2f 35 34 4e ad 11 2c
       -0.04318 -0.04398 -0.2544 0.1345 0.1173 0.263 -0.0829 0.06354
0001f0 e6 23 2b 32 40 25 5b 33 b9 2e 8e 2f 16 b1 55 39
       0.01543 0.1927 0.02051 0.2299 0.10504 0.11804 -0.1589 0.6665

net.resblocks.1.conv2.bias f2 [16]
000000 4a bb 07 33 92 38 40 b8 99 35 81 37 6f b0 6a 35
       -0.911 0.2196 0.5713 -0.5312 0.3499 0.469 -0.1385 0.3384
000010 99 b3 a6 2d e5 31 6d b7 20 b0 97 b5 ec 2d ee 32
       -0.2374 0.08826 0.1842 -0.464 -0.1289 -0.3494 0.0925 0.2166

net.resblocks.1.conv2.weight f2 [16, 16, 3, 3]
000000 c8 2f 40 31 f7 31 d0 ad eb 32 87 35 13 39 d7 bb
       0.1216 0.1641 0.1864 -0.0908 0.2162 0.3455 0.6343 -0.98
000010 e8 35 a7 bc 30 ab 72 b8 eb 30 6a 3c 47 1d e9 b9
       0.3691 -1.163 -0.05615 -0.5557 0.1537 1.104 0.005154 -0.739
000020 2c 2f e1 b7 d5 a7 1c 33 71 31 49 b6 ef 32 6b b6
       0.11206 -0.4924 -0.0306 0.2222 0.17 -0.3928 0.2167 -0.4011
000030 69 26 96 33 7d b0 db b6 a0 b4 a5 b0 25 bf b1 bf
       0.02504 0.237 -0.1403 -0.4285 -0.289 -0.1451 -1.786 -1.923
000040 6d bd 72 af 9b b4 ec b1 b6 2c bd b4 d9 1e 1e 38
       -1.356 -0.11633 -0.2878 -0.185 0.0736 -0.2961 0.006687 0.5146
000050 0d b9 64 36 d3 a9 3b ac 7c 2a 20 b3 93 aa a1 34
       -0.6313 0.3994 -0.0455 -0.0661 0.05066 -0.2227 -0.05136 0.2893
000060 e3 b3 fc 38 c6 b8 c9 2b a1 35 a3 33 36 34 5f ac
       -0.2465 0.623 -0.5967 0.06082 0.3518 0.2386 0.2632 -0.0683
000070 b9 ad fa 38 80 2d 4b af 6f a9 96 a5 4c ae b9 32
       -0.0894 0.622 0.08594 -0.11395 -0.04245 -0.02182 -0.0984 0.2101
000080 f5 a1 d2 28 6c b1 05 ad 90 2b 6f 29 fb 2e 2a 32
       -0.011635 0.03766 -0.1694 -0.0784 0.05908 0.04245 0.1091 0.1926
000090 97 32 0c ab 18 b6 32 37 63 b9 9e 33 30 2c a1 ad
       0.2059 -0.05505 -0.3809 0.4497 -0.6733 0.238 0.0654 -0.08795
0000a0 3a 36 0e c0 e4 b7 e4 b4 db bb a2 39 64 b8 69 ad
       0.3892 -2.027 -0.4932 -0.3057 -0.982 0.704 -0.549 -0.08453
0000b0 c6 34 37 b8 b0 2f 69 9c c8 aa ff 28 24 1d b0 31
       0.2983 -0.527 0.1201 -0.004307 -0.05298 0.03903 0.00502 0.1777
0000c0 ed 2b bb ad 75 ab ef b7 8e 38 8d 35 84 b1 a7 b4
       0.06192 -0.08954 -0.05826 -0.4958 0.5693 0.347 -0.1724 -0.2908
0000d0 85 35 4d 2c 66 b1 39 b2 62 a6 74 32 9c b8 94 3a
       0.345 0.0672 -0.1687 -0.1945 -0.02493 0.2017 -0.576 0.8223
0000e0 15 34 fc b9 5c b2 8a b1 b1 b6 5f ad 1e 2f ec b0
       0.2551 -0.748 -0.1987 -0.1731 -0.4182 -0.0839 0.1112 -0.1538
0000f0 f9 34 bc 39 9b 32 87 28 4e bc d7 34 76 31 92 b9
       0.3108 0.717 0.2064 0.03537 -1.076 0.3025 0.1707 -0.6963
000100 fc 37 1d 37 30 ba 7c 33 05 36 6c 3a bd 30 03 35
       0.499 0.4446 -0.7734 0.2339 0.3762 0.8027 0.1481 0.3132
000110 03 ac d2 32 a6 2f dc ac 15 2b 73 b8 c2 a2 1d b4
       -0.0627 0.2131 0.1195 -0.0759 0.05533 -0.556 -0.0132 -0.257
000120 d2 ae a4 13 d9 ae 68 25 37 b3 3d ae d1 a2 f5 a7
       -0.10657 0.0009327 -0.107 0.02112 -0.2255 -0.0975 -0.01331 -0.03108
000130 76 2c e0 a8 19 ac 75 2e 29 b4 54 30 63 ac 30 af
       0.0697 -0.0381 -0.064 0.1009 -0.26 0.1353 -0.06854 -0.1123
000140 54 b3 51 2e 38 2b 4d 36 50 1e f2 31 bd 34 07 31
       -0.229 0.0987 0.0564 0.3938 0.006165 0.1858 0.2961 0.1571
000150 7f 31 a1 9c 20 18 69 24 9e a4 f6 ac 5c 2a 1b 25
       0.1718 -0.00452 0.002014 0.01723 -0.01804 -0.0775 0.04968 0.01994
000160 57 2a 9e 28 1f 26 a4 27 be 38 d2 35 37 2a 35 38
       0.04953 0.03607 0.02391 0.02985 0.593 0.3638 0.04855 0.526
000170 44 3a 54 29 38 a8 d6 ac 38 2e 7d 28 a7 a8 ed 28
       0.783 0.04163 -0.03296 -0.07556 0.09717 0.03506 -0.03635 0.03848
000180 08 32 d5 af 71 30 81 32 3e 30 92 2f d9 28 a8 9f
       0.1885 -0.1224 0.1388 0.2032 0.1326 0.1183 0.03787 -0.007477
000190 31 aa ca a2 7d 32 4c 28 b4 33 da 32 0c b0 9c b8
       -0.04837 -0.01326 0.2028 0.03357 0.2407 0.2141 -0.1265 -0.576
0001a0 9b b2 31 b8 1b 30 1e 33 b4 2b 88 ba bd ac 4f b5
       -0.2064 -0.524 0.1283 0.2224 0.06018 -0.8164 -0.07404 -0.3318
0001b0 82 b1 38 b2 9b ac 6d 2d a0 34 1b 30 e0 27 29 2e
       -0.1721 -0.1943 -0.07196 0.0848 0.289 0.1283 0.03076 0.09625
0001c0 0b a2 52 2a da 26 c1 ae ec a5 59 2d 8c b0 92 31
       -0.0118 0.04938 0.02676 -0.1055 -0.02313 0.08356 -0.1421 0.1741
0001d0 7b 30 2e ad 87 b3 33 2f 71 32 7b b9 9a b0 0a 29
       0.14 -0.08093 -0.2352 0.1125 0.2013 -0.685 -0.1438 0.03937
0001e0 5a b7 6b 2a 78 2c 0c b2 d7 30 1a 26 e2 a4 4c 9c
       -0.4595 0.05014 0.0698 -0.189 0.1512 0.02383 -0.01907 -0.004196
0001f0 79 2f 8b ad 73 ad db 20 03 2f ca b3 c7 31 cf 31
       0.11676 -0.0866 -0.08514 0.00948 0.10956 -0.2434 0.1805 0.1815
